<?xml version="1.0"?>
<net name="main_graph" version="11">
	<layers>
		<layer id="0" name="input" type="Parameter" version="opset1">
			<data shape="?,3,?,?" element_type="f32" />
			<output>
				<port id="0" precision="FP32" names="input">
					<dim>-1</dim>
					<dim>3</dim>
					<dim>-1</dim>
					<dim>-1</dim>
				</port>
			</output>
		</layer>
		<layer id="1" name="/transform/Concat" type="Const" version="opset1">
			<data element_type="i64" shape="4" offset="0" size="32" />
			<output>
				<port id="0" precision="I64">
					<dim>4</dim>
				</port>
			</output>
		</layer>
		<layer id="2" name="/transform/Reshape" type="Reshape" version="opset1">
			<data special_zero="true" />
			<input>
				<port id="0" precision="FP32">
					<dim>-1</dim>
					<dim>3</dim>
					<dim>-1</dim>
					<dim>-1</dim>
				</port>
				<port id="1" precision="I64">
					<dim>4</dim>
				</port>
			</input>
			<output>
				<port id="2" precision="FP32" names="/transform/Reshape_output_0">
					<dim>-1</dim>
					<dim>3</dim>
					<dim>-1</dim>
					<dim>-1</dim>
				</port>
			</output>
		</layer>
		<layer id="3" name="/transform/Shape_4" type="ShapeOf" version="opset3">
			<data output_type="i64" />
			<input>
				<port id="0" precision="FP32">
					<dim>-1</dim>
					<dim>3</dim>
					<dim>-1</dim>
					<dim>-1</dim>
				</port>
			</input>
			<output>
				<port id="1" precision="I64" names="/transform/Shape_4_output_0">
					<dim>4</dim>
				</port>
			</output>
		</layer>
		<layer id="4" name="/transform/Constant_6" type="Const" version="opset1">
			<data element_type="i64" shape="1" offset="32" size="8" />
			<output>
				<port id="0" precision="I64" names="/transform/Constant_6_output_0">
					<dim>1</dim>
				</port>
			</output>
		</layer>
		<layer id="5" name="/transform/Constant_7" type="Const" version="opset1">
			<data element_type="i64" shape="1" offset="40" size="8" />
			<output>
				<port id="0" precision="I64" names="/transform/Constant_7_output_0">
					<dim>1</dim>
				</port>
			</output>
		</layer>
		<layer id="6" name="Broadcast_86" type="Const" version="opset1">
			<data element_type="i64" shape="1" offset="48" size="8" />
			<output>
				<port id="0" precision="I64">
					<dim>1</dim>
				</port>
			</output>
		</layer>
		<layer id="7" name="/transform/Constant_5" type="Const" version="opset1">
			<data element_type="i64" shape="1" offset="32" size="8" />
			<output>
				<port id="0" precision="I64" names="/transform/Constant_5_output_0">
					<dim>1</dim>
				</port>
			</output>
		</layer>
		<layer id="8" name="/transform/Slice" type="Slice" version="opset8">
			<input>
				<port id="0" precision="I64">
					<dim>4</dim>
				</port>
				<port id="1" precision="I64">
					<dim>1</dim>
				</port>
				<port id="2" precision="I64">
					<dim>1</dim>
				</port>
				<port id="3" precision="I64">
					<dim>1</dim>
				</port>
				<port id="4" precision="I64">
					<dim>1</dim>
				</port>
			</input>
			<output>
				<port id="5" precision="I64" names="/transform/Slice_output_0">
					<dim>2</dim>
				</port>
			</output>
		</layer>
		<layer id="9" name="/transform/Constant_8" type="Const" version="opset1">
			<data element_type="i64" shape="2" offset="56" size="16" />
			<output>
				<port id="0" precision="I64" names="/transform/Constant_8_output_0">
					<dim>2</dim>
				</port>
			</output>
		</layer>
		<layer id="10" name="/transform/Concat_1" type="Concat" version="opset1">
			<data axis="0" />
			<input>
				<port id="0" precision="I64">
					<dim>2</dim>
				</port>
				<port id="1" precision="I64">
					<dim>2</dim>
				</port>
			</input>
			<output>
				<port id="2" precision="I64" names="/transform/Concat_1_output_0">
					<dim>4</dim>
				</port>
			</output>
		</layer>
		<layer id="11" name="/transform/Resize" type="Interpolate" version="opset11">
			<data mode="linear_onnx" shape_calculation_mode="sizes" coordinate_transformation_mode="half_pixel" nearest_mode="floor" antialias="false" pads_begin="0, 0, 0, 0" pads_end="0, 0, 0, 0" cube_coeff="-0.75" />
			<input>
				<port id="0" precision="FP32">
					<dim>-1</dim>
					<dim>3</dim>
					<dim>-1</dim>
					<dim>-1</dim>
				</port>
				<port id="1" precision="I64">
					<dim>4</dim>
				</port>
			</input>
			<output>
				<port id="2" precision="FP32" names="/transform/Resize_output_0">
					<dim>-1</dim>
					<dim>3</dim>
					<dim>256</dim>
					<dim>256</dim>
				</port>
			</output>
		</layer>
		<layer id="12" name="Constant_9687" type="Const" version="opset1">
			<data element_type="i64" shape="4" offset="72" size="32" />
			<output>
				<port id="0" precision="I64">
					<dim>4</dim>
				</port>
			</output>
		</layer>
		<layer id="13" name="/transform/Reshape_1" type="Reshape" version="opset1">
			<data special_zero="true" />
			<input>
				<port id="0" precision="FP32">
					<dim>-1</dim>
					<dim>3</dim>
					<dim>256</dim>
					<dim>256</dim>
				</port>
				<port id="1" precision="I64">
					<dim>4</dim>
				</port>
			</input>
			<output>
				<port id="2" precision="FP32" names="/transform/Reshape_1_output_0">
					<dim>-1</dim>
					<dim>3</dim>
					<dim>256</dim>
					<dim>256</dim>
				</port>
			</output>
		</layer>
		<layer id="14" name="Constant_8888" type="Const" version="opset1">
			<data element_type="f32" shape="1, 3, 1, 1" offset="104" size="12" />
			<output>
				<port id="0" precision="FP32">
					<dim>1</dim>
					<dim>3</dim>
					<dim>1</dim>
					<dim>1</dim>
				</port>
			</output>
		</layer>
		<layer id="15" name="Multiply_8946" type="Multiply" version="opset1">
			<data auto_broadcast="numpy" />
			<input>
				<port id="0" precision="FP32">
					<dim>-1</dim>
					<dim>3</dim>
					<dim>256</dim>
					<dim>256</dim>
				</port>
				<port id="1" precision="FP32">
					<dim>1</dim>
					<dim>3</dim>
					<dim>1</dim>
					<dim>1</dim>
				</port>
			</input>
			<output>
				<port id="2" precision="FP32">
					<dim>-1</dim>
					<dim>3</dim>
					<dim>256</dim>
					<dim>256</dim>
				</port>
			</output>
		</layer>
		<layer id="16" name="Constant_8948" type="Const" version="opset1">
			<data element_type="f32" shape="1, 3, 1, 1" offset="116" size="12" />
			<output>
				<port id="0" precision="FP32">
					<dim>1</dim>
					<dim>3</dim>
					<dim>1</dim>
					<dim>1</dim>
				</port>
			</output>
		</layer>
		<layer id="17" name="/model/teacher/Div" type="Add" version="opset1">
			<data auto_broadcast="numpy" />
			<input>
				<port id="0" precision="FP32">
					<dim>-1</dim>
					<dim>3</dim>
					<dim>256</dim>
					<dim>256</dim>
				</port>
				<port id="1" precision="FP32">
					<dim>1</dim>
					<dim>3</dim>
					<dim>1</dim>
					<dim>1</dim>
				</port>
			</input>
			<output>
				<port id="2" precision="FP32" names="/model/teacher/Div_output_0">
					<dim>-1</dim>
					<dim>3</dim>
					<dim>256</dim>
					<dim>256</dim>
				</port>
			</output>
		</layer>
		<layer id="18" name="model.ae.encoder.enconv1.weight" type="Const" version="opset1">
			<data element_type="f32" shape="32, 3, 4, 4" offset="128" size="6144" />
			<output>
				<port id="0" precision="FP32" names="model.ae.encoder.enconv1.weight">
					<dim>32</dim>
					<dim>3</dim>
					<dim>4</dim>
					<dim>4</dim>
				</port>
			</output>
		</layer>
		<layer id="19" name="/model/ae/encoder/enconv1/Conv/WithoutBiases" type="Convolution" version="opset1">
			<data strides="2, 2" dilations="1, 1" pads_begin="1, 1" pads_end="1, 1" auto_pad="explicit" />
			<input>
				<port id="0" precision="FP32">
					<dim>-1</dim>
					<dim>3</dim>
					<dim>256</dim>
					<dim>256</dim>
				</port>
				<port id="1" precision="FP32">
					<dim>32</dim>
					<dim>3</dim>
					<dim>4</dim>
					<dim>4</dim>
				</port>
			</input>
			<output>
				<port id="2" precision="FP32">
					<dim>-1</dim>
					<dim>32</dim>
					<dim>128</dim>
					<dim>128</dim>
				</port>
			</output>
		</layer>
		<layer id="20" name="Reshape_284" type="Const" version="opset1">
			<data element_type="f32" shape="1, 32, 1, 1" offset="6272" size="128" />
			<output>
				<port id="0" precision="FP32">
					<dim>1</dim>
					<dim>32</dim>
					<dim>1</dim>
					<dim>1</dim>
				</port>
			</output>
		</layer>
		<layer id="21" name="/model/ae/encoder/enconv1/Conv" type="Add" version="opset1">
			<data auto_broadcast="numpy" />
			<input>
				<port id="0" precision="FP32">
					<dim>-1</dim>
					<dim>32</dim>
					<dim>128</dim>
					<dim>128</dim>
				</port>
				<port id="1" precision="FP32">
					<dim>1</dim>
					<dim>32</dim>
					<dim>1</dim>
					<dim>1</dim>
				</port>
			</input>
			<output>
				<port id="2" precision="FP32" names="/model/ae/encoder/enconv1/Conv_output_0">
					<dim>-1</dim>
					<dim>32</dim>
					<dim>128</dim>
					<dim>128</dim>
				</port>
			</output>
		</layer>
		<layer id="22" name="/model/ae/encoder/Relu" type="ReLU" version="opset1">
			<input>
				<port id="0" precision="FP32">
					<dim>-1</dim>
					<dim>32</dim>
					<dim>128</dim>
					<dim>128</dim>
				</port>
			</input>
			<output>
				<port id="1" precision="FP32" names="/model/ae/encoder/Relu_output_0">
					<dim>-1</dim>
					<dim>32</dim>
					<dim>128</dim>
					<dim>128</dim>
				</port>
			</output>
		</layer>
		<layer id="23" name="model.ae.encoder.enconv2.weight" type="Const" version="opset1">
			<data element_type="f32" shape="32, 32, 4, 4" offset="6400" size="65536" />
			<output>
				<port id="0" precision="FP32" names="model.ae.encoder.enconv2.weight">
					<dim>32</dim>
					<dim>32</dim>
					<dim>4</dim>
					<dim>4</dim>
				</port>
			</output>
		</layer>
		<layer id="24" name="/model/ae/encoder/enconv2/Conv/WithoutBiases" type="Convolution" version="opset1">
			<data strides="2, 2" dilations="1, 1" pads_begin="1, 1" pads_end="1, 1" auto_pad="explicit" />
			<input>
				<port id="0" precision="FP32">
					<dim>-1</dim>
					<dim>32</dim>
					<dim>128</dim>
					<dim>128</dim>
				</port>
				<port id="1" precision="FP32">
					<dim>32</dim>
					<dim>32</dim>
					<dim>4</dim>
					<dim>4</dim>
				</port>
			</input>
			<output>
				<port id="2" precision="FP32">
					<dim>-1</dim>
					<dim>32</dim>
					<dim>64</dim>
					<dim>64</dim>
				</port>
			</output>
		</layer>
		<layer id="25" name="Reshape_301" type="Const" version="opset1">
			<data element_type="f32" shape="1, 32, 1, 1" offset="71936" size="128" />
			<output>
				<port id="0" precision="FP32">
					<dim>1</dim>
					<dim>32</dim>
					<dim>1</dim>
					<dim>1</dim>
				</port>
			</output>
		</layer>
		<layer id="26" name="/model/ae/encoder/enconv2/Conv" type="Add" version="opset1">
			<data auto_broadcast="numpy" />
			<input>
				<port id="0" precision="FP32">
					<dim>-1</dim>
					<dim>32</dim>
					<dim>64</dim>
					<dim>64</dim>
				</port>
				<port id="1" precision="FP32">
					<dim>1</dim>
					<dim>32</dim>
					<dim>1</dim>
					<dim>1</dim>
				</port>
			</input>
			<output>
				<port id="2" precision="FP32" names="/model/ae/encoder/enconv2/Conv_output_0">
					<dim>-1</dim>
					<dim>32</dim>
					<dim>64</dim>
					<dim>64</dim>
				</port>
			</output>
		</layer>
		<layer id="27" name="/model/ae/encoder/Relu_1" type="ReLU" version="opset1">
			<input>
				<port id="0" precision="FP32">
					<dim>-1</dim>
					<dim>32</dim>
					<dim>64</dim>
					<dim>64</dim>
				</port>
			</input>
			<output>
				<port id="1" precision="FP32" names="/model/ae/encoder/Relu_1_output_0">
					<dim>-1</dim>
					<dim>32</dim>
					<dim>64</dim>
					<dim>64</dim>
				</port>
			</output>
		</layer>
		<layer id="28" name="model.ae.encoder.enconv3.weight" type="Const" version="opset1">
			<data element_type="f32" shape="64, 32, 4, 4" offset="72064" size="131072" />
			<output>
				<port id="0" precision="FP32" names="model.ae.encoder.enconv3.weight">
					<dim>64</dim>
					<dim>32</dim>
					<dim>4</dim>
					<dim>4</dim>
				</port>
			</output>
		</layer>
		<layer id="29" name="/model/ae/encoder/enconv3/Conv/WithoutBiases" type="Convolution" version="opset1">
			<data strides="2, 2" dilations="1, 1" pads_begin="1, 1" pads_end="1, 1" auto_pad="explicit" />
			<input>
				<port id="0" precision="FP32">
					<dim>-1</dim>
					<dim>32</dim>
					<dim>64</dim>
					<dim>64</dim>
				</port>
				<port id="1" precision="FP32">
					<dim>64</dim>
					<dim>32</dim>
					<dim>4</dim>
					<dim>4</dim>
				</port>
			</input>
			<output>
				<port id="2" precision="FP32">
					<dim>-1</dim>
					<dim>64</dim>
					<dim>32</dim>
					<dim>32</dim>
				</port>
			</output>
		</layer>
		<layer id="30" name="Reshape_318" type="Const" version="opset1">
			<data element_type="f32" shape="1, 64, 1, 1" offset="203136" size="256" />
			<output>
				<port id="0" precision="FP32">
					<dim>1</dim>
					<dim>64</dim>
					<dim>1</dim>
					<dim>1</dim>
				</port>
			</output>
		</layer>
		<layer id="31" name="/model/ae/encoder/enconv3/Conv" type="Add" version="opset1">
			<data auto_broadcast="numpy" />
			<input>
				<port id="0" precision="FP32">
					<dim>-1</dim>
					<dim>64</dim>
					<dim>32</dim>
					<dim>32</dim>
				</port>
				<port id="1" precision="FP32">
					<dim>1</dim>
					<dim>64</dim>
					<dim>1</dim>
					<dim>1</dim>
				</port>
			</input>
			<output>
				<port id="2" precision="FP32" names="/model/ae/encoder/enconv3/Conv_output_0">
					<dim>-1</dim>
					<dim>64</dim>
					<dim>32</dim>
					<dim>32</dim>
				</port>
			</output>
		</layer>
		<layer id="32" name="/model/ae/encoder/Relu_2" type="ReLU" version="opset1">
			<input>
				<port id="0" precision="FP32">
					<dim>-1</dim>
					<dim>64</dim>
					<dim>32</dim>
					<dim>32</dim>
				</port>
			</input>
			<output>
				<port id="1" precision="FP32" names="/model/ae/encoder/Relu_2_output_0">
					<dim>-1</dim>
					<dim>64</dim>
					<dim>32</dim>
					<dim>32</dim>
				</port>
			</output>
		</layer>
		<layer id="33" name="model.ae.encoder.enconv4.weight" type="Const" version="opset1">
			<data element_type="f32" shape="64, 64, 4, 4" offset="203392" size="262144" />
			<output>
				<port id="0" precision="FP32" names="model.ae.encoder.enconv4.weight">
					<dim>64</dim>
					<dim>64</dim>
					<dim>4</dim>
					<dim>4</dim>
				</port>
			</output>
		</layer>
		<layer id="34" name="/model/ae/encoder/enconv4/Conv/WithoutBiases" type="Convolution" version="opset1">
			<data strides="2, 2" dilations="1, 1" pads_begin="1, 1" pads_end="1, 1" auto_pad="explicit" />
			<input>
				<port id="0" precision="FP32">
					<dim>-1</dim>
					<dim>64</dim>
					<dim>32</dim>
					<dim>32</dim>
				</port>
				<port id="1" precision="FP32">
					<dim>64</dim>
					<dim>64</dim>
					<dim>4</dim>
					<dim>4</dim>
				</port>
			</input>
			<output>
				<port id="2" precision="FP32">
					<dim>-1</dim>
					<dim>64</dim>
					<dim>16</dim>
					<dim>16</dim>
				</port>
			</output>
		</layer>
		<layer id="35" name="Reshape_335" type="Const" version="opset1">
			<data element_type="f32" shape="1, 64, 1, 1" offset="465536" size="256" />
			<output>
				<port id="0" precision="FP32">
					<dim>1</dim>
					<dim>64</dim>
					<dim>1</dim>
					<dim>1</dim>
				</port>
			</output>
		</layer>
		<layer id="36" name="/model/ae/encoder/enconv4/Conv" type="Add" version="opset1">
			<data auto_broadcast="numpy" />
			<input>
				<port id="0" precision="FP32">
					<dim>-1</dim>
					<dim>64</dim>
					<dim>16</dim>
					<dim>16</dim>
				</port>
				<port id="1" precision="FP32">
					<dim>1</dim>
					<dim>64</dim>
					<dim>1</dim>
					<dim>1</dim>
				</port>
			</input>
			<output>
				<port id="2" precision="FP32" names="/model/ae/encoder/enconv4/Conv_output_0">
					<dim>-1</dim>
					<dim>64</dim>
					<dim>16</dim>
					<dim>16</dim>
				</port>
			</output>
		</layer>
		<layer id="37" name="/model/ae/encoder/Relu_3" type="ReLU" version="opset1">
			<input>
				<port id="0" precision="FP32">
					<dim>-1</dim>
					<dim>64</dim>
					<dim>16</dim>
					<dim>16</dim>
				</port>
			</input>
			<output>
				<port id="1" precision="FP32" names="/model/ae/encoder/Relu_3_output_0">
					<dim>-1</dim>
					<dim>64</dim>
					<dim>16</dim>
					<dim>16</dim>
				</port>
			</output>
		</layer>
		<layer id="38" name="model.ae.encoder.enconv5.weight" type="Const" version="opset1">
			<data element_type="f32" shape="64, 64, 4, 4" offset="465792" size="262144" />
			<output>
				<port id="0" precision="FP32" names="model.ae.encoder.enconv5.weight">
					<dim>64</dim>
					<dim>64</dim>
					<dim>4</dim>
					<dim>4</dim>
				</port>
			</output>
		</layer>
		<layer id="39" name="/model/ae/encoder/enconv5/Conv/WithoutBiases" type="Convolution" version="opset1">
			<data strides="2, 2" dilations="1, 1" pads_begin="1, 1" pads_end="1, 1" auto_pad="explicit" />
			<input>
				<port id="0" precision="FP32">
					<dim>-1</dim>
					<dim>64</dim>
					<dim>16</dim>
					<dim>16</dim>
				</port>
				<port id="1" precision="FP32">
					<dim>64</dim>
					<dim>64</dim>
					<dim>4</dim>
					<dim>4</dim>
				</port>
			</input>
			<output>
				<port id="2" precision="FP32">
					<dim>-1</dim>
					<dim>64</dim>
					<dim>8</dim>
					<dim>8</dim>
				</port>
			</output>
		</layer>
		<layer id="40" name="Reshape_352" type="Const" version="opset1">
			<data element_type="f32" shape="1, 64, 1, 1" offset="727936" size="256" />
			<output>
				<port id="0" precision="FP32">
					<dim>1</dim>
					<dim>64</dim>
					<dim>1</dim>
					<dim>1</dim>
				</port>
			</output>
		</layer>
		<layer id="41" name="/model/ae/encoder/enconv5/Conv" type="Add" version="opset1">
			<data auto_broadcast="numpy" />
			<input>
				<port id="0" precision="FP32">
					<dim>-1</dim>
					<dim>64</dim>
					<dim>8</dim>
					<dim>8</dim>
				</port>
				<port id="1" precision="FP32">
					<dim>1</dim>
					<dim>64</dim>
					<dim>1</dim>
					<dim>1</dim>
				</port>
			</input>
			<output>
				<port id="2" precision="FP32" names="/model/ae/encoder/enconv5/Conv_output_0">
					<dim>-1</dim>
					<dim>64</dim>
					<dim>8</dim>
					<dim>8</dim>
				</port>
			</output>
		</layer>
		<layer id="42" name="/model/ae/encoder/Relu_4" type="ReLU" version="opset1">
			<input>
				<port id="0" precision="FP32">
					<dim>-1</dim>
					<dim>64</dim>
					<dim>8</dim>
					<dim>8</dim>
				</port>
			</input>
			<output>
				<port id="1" precision="FP32" names="/model/ae/encoder/Relu_4_output_0">
					<dim>-1</dim>
					<dim>64</dim>
					<dim>8</dim>
					<dim>8</dim>
				</port>
			</output>
		</layer>
		<layer id="43" name="model.ae.encoder.enconv6.weight" type="Const" version="opset1">
			<data element_type="f32" shape="64, 64, 8, 8" offset="728192" size="1048576" />
			<output>
				<port id="0" precision="FP32" names="model.ae.encoder.enconv6.weight">
					<dim>64</dim>
					<dim>64</dim>
					<dim>8</dim>
					<dim>8</dim>
				</port>
			</output>
		</layer>
		<layer id="44" name="/model/ae/encoder/enconv6/Conv/WithoutBiases" type="Convolution" version="opset1">
			<data strides="1, 1" dilations="1, 1" pads_begin="0, 0" pads_end="0, 0" auto_pad="explicit" />
			<input>
				<port id="0" precision="FP32">
					<dim>-1</dim>
					<dim>64</dim>
					<dim>8</dim>
					<dim>8</dim>
				</port>
				<port id="1" precision="FP32">
					<dim>64</dim>
					<dim>64</dim>
					<dim>8</dim>
					<dim>8</dim>
				</port>
			</input>
			<output>
				<port id="2" precision="FP32">
					<dim>-1</dim>
					<dim>64</dim>
					<dim>1</dim>
					<dim>1</dim>
				</port>
			</output>
		</layer>
		<layer id="45" name="Reshape_369" type="Const" version="opset1">
			<data element_type="f32" shape="1, 64, 1, 1" offset="1776768" size="256" />
			<output>
				<port id="0" precision="FP32">
					<dim>1</dim>
					<dim>64</dim>
					<dim>1</dim>
					<dim>1</dim>
				</port>
			</output>
		</layer>
		<layer id="46" name="/model/ae/encoder/enconv6/Conv" type="Add" version="opset1">
			<data auto_broadcast="numpy" />
			<input>
				<port id="0" precision="FP32">
					<dim>-1</dim>
					<dim>64</dim>
					<dim>1</dim>
					<dim>1</dim>
				</port>
				<port id="1" precision="FP32">
					<dim>1</dim>
					<dim>64</dim>
					<dim>1</dim>
					<dim>1</dim>
				</port>
			</input>
			<output>
				<port id="2" precision="FP32" names="/model/ae/encoder/enconv6/Conv_output_0">
					<dim>-1</dim>
					<dim>64</dim>
					<dim>1</dim>
					<dim>1</dim>
				</port>
			</output>
		</layer>
		<layer id="47" name="/model/ae/decoder/Shape" type="ShapeOf" version="opset3">
			<data output_type="i64" />
			<input>
				<port id="0" precision="FP32">
					<dim>-1</dim>
					<dim>64</dim>
					<dim>1</dim>
					<dim>1</dim>
				</port>
			</input>
			<output>
				<port id="1" precision="I64" names="/model/ae/decoder/Shape_output_0">
					<dim>4</dim>
				</port>
			</output>
		</layer>
		<layer id="48" name="/model/ae/decoder/Constant_5" type="Const" version="opset1">
			<data element_type="i64" shape="1" offset="32" size="8" />
			<output>
				<port id="0" precision="I64" names="/model/ae/decoder/Constant_5_output_0">
					<dim>1</dim>
				</port>
			</output>
		</layer>
		<layer id="49" name="/model/ae/decoder/Constant_6" type="Const" version="opset1">
			<data element_type="i64" shape="1" offset="40" size="8" />
			<output>
				<port id="0" precision="I64" names="/model/ae/decoder/Constant_6_output_0">
					<dim>1</dim>
				</port>
			</output>
		</layer>
		<layer id="50" name="Broadcast_396" type="Const" version="opset1">
			<data element_type="i64" shape="1" offset="48" size="8" />
			<output>
				<port id="0" precision="I64">
					<dim>1</dim>
				</port>
			</output>
		</layer>
		<layer id="51" name="/model/ae/decoder/Constant_4" type="Const" version="opset1">
			<data element_type="i64" shape="1" offset="32" size="8" />
			<output>
				<port id="0" precision="I64" names="/model/ae/decoder/Constant_4_output_0">
					<dim>1</dim>
				</port>
			</output>
		</layer>
		<layer id="52" name="/model/ae/decoder/Slice" type="Slice" version="opset8">
			<input>
				<port id="0" precision="I64">
					<dim>4</dim>
				</port>
				<port id="1" precision="I64">
					<dim>1</dim>
				</port>
				<port id="2" precision="I64">
					<dim>1</dim>
				</port>
				<port id="3" precision="I64">
					<dim>1</dim>
				</port>
				<port id="4" precision="I64">
					<dim>1</dim>
				</port>
			</input>
			<output>
				<port id="5" precision="I64" names="/model/ae/decoder/Slice_output_0">
					<dim>2</dim>
				</port>
			</output>
		</layer>
		<layer id="53" name="/model/Shape" type="ShapeOf" version="opset3">
			<data output_type="i64" />
			<input>
				<port id="0" precision="FP32">
					<dim>-1</dim>
					<dim>3</dim>
					<dim>256</dim>
					<dim>256</dim>
				</port>
			</input>
			<output>
				<port id="1" precision="I64" names="/model/Shape_1_output_0,/model/Shape_output_0">
					<dim>4</dim>
				</port>
			</output>
		</layer>
		<layer id="54" name="/model/Constant" type="Const" version="opset1">
			<data element_type="i64" shape="" offset="40" size="8" />
			<output>
				<port id="0" precision="I64" names="/model/Constant_output_0" />
			</output>
		</layer>
		<layer id="55" name="Constant_114" type="Const" version="opset1">
			<data element_type="i64" shape="" offset="32" size="8" />
			<output>
				<port id="0" precision="I64" />
			</output>
		</layer>
		<layer id="56" name="/model/Gather" type="Gather" version="opset8">
			<data batch_dims="0" />
			<input>
				<port id="0" precision="I64">
					<dim>4</dim>
				</port>
				<port id="1" precision="I64" />
				<port id="2" precision="I64" />
			</input>
			<output>
				<port id="3" precision="I64" names="/model/Gather_output_0" />
			</output>
		</layer>
		<layer id="57" name="/model/ae/decoder/Constant" type="Const" version="opset1">
			<data element_type="i64" shape="" offset="1777024" size="8" />
			<output>
				<port id="0" precision="I64" names="/model/ae/decoder/Constant_output_0" />
			</output>
		</layer>
		<layer id="58" name="/model/ae/decoder/Div" type="Divide" version="opset1">
			<data auto_broadcast="numpy" m_pythondiv="true" />
			<input>
				<port id="0" precision="I64" />
				<port id="1" precision="I64" />
			</input>
			<output>
				<port id="2" precision="I64" names="/model/ae/decoder/Cast_1_output_0,/model/ae/decoder/Cast_output_0,/model/ae/decoder/Div_output_0" />
			</output>
		</layer>
		<layer id="59" name="Constant_8892" type="Const" version="opset1">
			<data element_type="i64" shape="" offset="1777032" size="8" />
			<output>
				<port id="0" precision="I64" />
			</output>
		</layer>
		<layer id="60" name="/model/ae/decoder/Sub" type="Add" version="opset1">
			<data auto_broadcast="numpy" />
			<input>
				<port id="0" precision="I64" />
				<port id="1" precision="I64" />
			</input>
			<output>
				<port id="2" precision="I64" names="/model/ae/decoder/Sub_output_0" />
			</output>
		</layer>
		<layer id="61" name="Constant_212" type="Const" version="opset1">
			<data element_type="i64" shape="1" offset="32" size="8" />
			<output>
				<port id="0" precision="I64" names="onnx::Unsqueeze_166">
					<dim>1</dim>
				</port>
			</output>
		</layer>
		<layer id="62" name="/model/ae/decoder/Unsqueeze" type="Unsqueeze" version="opset1">
			<input>
				<port id="0" precision="I64" />
				<port id="1" precision="I64">
					<dim>1</dim>
				</port>
			</input>
			<output>
				<port id="2" precision="I64" names="/model/ae/decoder/Unsqueeze_output_0">
					<dim>1</dim>
				</port>
			</output>
		</layer>
		<layer id="63" name="/model/Constant_1" type="Const" version="opset1">
			<data element_type="i64" shape="" offset="1777040" size="8" />
			<output>
				<port id="0" precision="I64" names="/model/Constant_1_output_0" />
			</output>
		</layer>
		<layer id="64" name="Constant_118" type="Const" version="opset1">
			<data element_type="i64" shape="" offset="32" size="8" />
			<output>
				<port id="0" precision="I64" />
			</output>
		</layer>
		<layer id="65" name="/model/Gather_1" type="Gather" version="opset8">
			<data batch_dims="0" />
			<input>
				<port id="0" precision="I64">
					<dim>4</dim>
				</port>
				<port id="1" precision="I64" />
				<port id="2" precision="I64" />
			</input>
			<output>
				<port id="3" precision="I64" names="/model/Gather_1_output_0" />
			</output>
		</layer>
		<layer id="66" name="/model/ae/decoder/Constant_2" type="Const" version="opset1">
			<data element_type="i64" shape="" offset="1777024" size="8" />
			<output>
				<port id="0" precision="I64" names="/model/ae/decoder/Constant_2_output_0" />
			</output>
		</layer>
		<layer id="67" name="/model/ae/decoder/Div_1" type="Divide" version="opset1">
			<data auto_broadcast="numpy" m_pythondiv="true" />
			<input>
				<port id="0" precision="I64" />
				<port id="1" precision="I64" />
			</input>
			<output>
				<port id="2" precision="I64" names="/model/ae/decoder/Cast_2_output_0,/model/ae/decoder/Cast_3_output_0,/model/ae/decoder/Div_1_output_0" />
			</output>
		</layer>
		<layer id="68" name="Constant_8896" type="Const" version="opset1">
			<data element_type="i64" shape="" offset="1777032" size="8" />
			<output>
				<port id="0" precision="I64" />
			</output>
		</layer>
		<layer id="69" name="/model/ae/decoder/Sub_1" type="Add" version="opset1">
			<data auto_broadcast="numpy" />
			<input>
				<port id="0" precision="I64" />
				<port id="1" precision="I64" />
			</input>
			<output>
				<port id="2" precision="I64" names="/model/ae/decoder/Sub_1_output_0" />
			</output>
		</layer>
		<layer id="70" name="Constant_214" type="Const" version="opset1">
			<data element_type="i64" shape="1" offset="32" size="8" />
			<output>
				<port id="0" precision="I64" names="onnx::Unsqueeze_168">
					<dim>1</dim>
				</port>
			</output>
		</layer>
		<layer id="71" name="/model/ae/decoder/Unsqueeze_1" type="Unsqueeze" version="opset1">
			<input>
				<port id="0" precision="I64" />
				<port id="1" precision="I64">
					<dim>1</dim>
				</port>
			</input>
			<output>
				<port id="2" precision="I64" names="/model/ae/decoder/Unsqueeze_1_output_0">
					<dim>1</dim>
				</port>
			</output>
		</layer>
		<layer id="72" name="/model/ae/decoder/Concat" type="Concat" version="opset1">
			<data axis="0" />
			<input>
				<port id="0" precision="I64">
					<dim>1</dim>
				</port>
				<port id="1" precision="I64">
					<dim>1</dim>
				</port>
			</input>
			<output>
				<port id="2" precision="I64" names="/model/ae/decoder/Cast_4_output_0,/model/ae/decoder/Concat_output_0">
					<dim>2</dim>
				</port>
			</output>
		</layer>
		<layer id="73" name="/model/ae/decoder/Concat_1" type="Concat" version="opset1">
			<data axis="0" />
			<input>
				<port id="0" precision="I64">
					<dim>2</dim>
				</port>
				<port id="1" precision="I64">
					<dim>2</dim>
				</port>
			</input>
			<output>
				<port id="2" precision="I64" names="/model/ae/decoder/Concat_1_output_0">
					<dim>4</dim>
				</port>
			</output>
		</layer>
		<layer id="74" name="/model/ae/decoder/Resize" type="Interpolate" version="opset11">
			<data mode="linear_onnx" shape_calculation_mode="sizes" coordinate_transformation_mode="half_pixel" nearest_mode="floor" antialias="false" pads_begin="0, 0, 0, 0" pads_end="0, 0, 0, 0" cube_coeff="-0.75" />
			<input>
				<port id="0" precision="FP32">
					<dim>-1</dim>
					<dim>64</dim>
					<dim>1</dim>
					<dim>1</dim>
				</port>
				<port id="1" precision="I64">
					<dim>4</dim>
				</port>
			</input>
			<output>
				<port id="2" precision="FP32" names="/model/ae/decoder/Resize_output_0">
					<dim>-1</dim>
					<dim>64</dim>
					<dim>3</dim>
					<dim>3</dim>
				</port>
			</output>
		</layer>
		<layer id="75" name="model.ae.decoder.deconv1.weight" type="Const" version="opset1">
			<data element_type="f32" shape="64, 64, 4, 4" offset="1777048" size="262144" />
			<output>
				<port id="0" precision="FP32" names="model.ae.decoder.deconv1.weight">
					<dim>64</dim>
					<dim>64</dim>
					<dim>4</dim>
					<dim>4</dim>
				</port>
			</output>
		</layer>
		<layer id="76" name="/model/ae/decoder/deconv1/Conv/WithoutBiases" type="Convolution" version="opset1">
			<data strides="1, 1" dilations="1, 1" pads_begin="2, 2" pads_end="2, 2" auto_pad="explicit" />
			<input>
				<port id="0" precision="FP32">
					<dim>-1</dim>
					<dim>64</dim>
					<dim>3</dim>
					<dim>3</dim>
				</port>
				<port id="1" precision="FP32">
					<dim>64</dim>
					<dim>64</dim>
					<dim>4</dim>
					<dim>4</dim>
				</port>
			</input>
			<output>
				<port id="2" precision="FP32">
					<dim>-1</dim>
					<dim>64</dim>
					<dim>4</dim>
					<dim>4</dim>
				</port>
			</output>
		</layer>
		<layer id="77" name="Reshape_522" type="Const" version="opset1">
			<data element_type="f32" shape="1, 64, 1, 1" offset="2039192" size="256" />
			<output>
				<port id="0" precision="FP32">
					<dim>1</dim>
					<dim>64</dim>
					<dim>1</dim>
					<dim>1</dim>
				</port>
			</output>
		</layer>
		<layer id="78" name="/model/ae/decoder/deconv1/Conv" type="Add" version="opset1">
			<data auto_broadcast="numpy" />
			<input>
				<port id="0" precision="FP32">
					<dim>-1</dim>
					<dim>64</dim>
					<dim>4</dim>
					<dim>4</dim>
				</port>
				<port id="1" precision="FP32">
					<dim>1</dim>
					<dim>64</dim>
					<dim>1</dim>
					<dim>1</dim>
				</port>
			</input>
			<output>
				<port id="2" precision="FP32" names="/model/ae/decoder/deconv1/Conv_output_0">
					<dim>-1</dim>
					<dim>64</dim>
					<dim>4</dim>
					<dim>4</dim>
				</port>
			</output>
		</layer>
		<layer id="79" name="/model/ae/decoder/Relu" type="ReLU" version="opset1">
			<input>
				<port id="0" precision="FP32">
					<dim>-1</dim>
					<dim>64</dim>
					<dim>4</dim>
					<dim>4</dim>
				</port>
			</input>
			<output>
				<port id="1" precision="FP32" names="/model/ae/decoder/Relu_output_0">
					<dim>-1</dim>
					<dim>64</dim>
					<dim>4</dim>
					<dim>4</dim>
				</port>
			</output>
		</layer>
		<layer id="80" name="/model/ae/decoder/Shape_1" type="ShapeOf" version="opset3">
			<data output_type="i64" />
			<input>
				<port id="0" precision="FP32">
					<dim>-1</dim>
					<dim>64</dim>
					<dim>4</dim>
					<dim>4</dim>
				</port>
			</input>
			<output>
				<port id="1" precision="I64" names="/model/ae/decoder/Shape_1_output_0">
					<dim>4</dim>
				</port>
			</output>
		</layer>
		<layer id="81" name="/model/ae/decoder/Constant_10" type="Const" version="opset1">
			<data element_type="i64" shape="1" offset="32" size="8" />
			<output>
				<port id="0" precision="I64" names="/model/ae/decoder/Constant_10_output_0">
					<dim>1</dim>
				</port>
			</output>
		</layer>
		<layer id="82" name="/model/ae/decoder/Constant_11" type="Const" version="opset1">
			<data element_type="i64" shape="1" offset="40" size="8" />
			<output>
				<port id="0" precision="I64" names="/model/ae/decoder/Constant_11_output_0">
					<dim>1</dim>
				</port>
			</output>
		</layer>
		<layer id="83" name="Broadcast_546" type="Const" version="opset1">
			<data element_type="i64" shape="1" offset="48" size="8" />
			<output>
				<port id="0" precision="I64">
					<dim>1</dim>
				</port>
			</output>
		</layer>
		<layer id="84" name="/model/ae/decoder/Constant_9" type="Const" version="opset1">
			<data element_type="i64" shape="1" offset="32" size="8" />
			<output>
				<port id="0" precision="I64" names="/model/ae/decoder/Constant_9_output_0">
					<dim>1</dim>
				</port>
			</output>
		</layer>
		<layer id="85" name="/model/ae/decoder/Slice_1" type="Slice" version="opset8">
			<input>
				<port id="0" precision="I64">
					<dim>4</dim>
				</port>
				<port id="1" precision="I64">
					<dim>1</dim>
				</port>
				<port id="2" precision="I64">
					<dim>1</dim>
				</port>
				<port id="3" precision="I64">
					<dim>1</dim>
				</port>
				<port id="4" precision="I64">
					<dim>1</dim>
				</port>
			</input>
			<output>
				<port id="5" precision="I64" names="/model/ae/decoder/Slice_1_output_0">
					<dim>2</dim>
				</port>
			</output>
		</layer>
		<layer id="86" name="Constant_9681" type="Const" version="opset1">
			<data element_type="i64" shape="1" offset="48" size="8" />
			<output>
				<port id="0" precision="I64">
					<dim>1</dim>
				</port>
			</output>
		</layer>
		<layer id="87" name="Reshape_9682" type="Reshape" version="opset1">
			<data special_zero="false" />
			<input>
				<port id="0" precision="I64" />
				<port id="1" precision="I64">
					<dim>1</dim>
				</port>
			</input>
			<output>
				<port id="2" precision="I64" names="/model/Unsqueeze_2_output_0,/model/Unsqueeze_output_0">
					<dim>1</dim>
				</port>
			</output>
		</layer>
		<layer id="88" name="Constant_9671" type="Const" version="opset1">
			<data element_type="i64" shape="1" offset="2039448" size="8" />
			<output>
				<port id="0" precision="I64">
					<dim>1</dim>
				</port>
			</output>
		</layer>
		<layer id="89" name="/model/ae/decoder/Div_2" type="Divide" version="opset1">
			<data auto_broadcast="numpy" m_pythondiv="true" />
			<input>
				<port id="0" precision="I64">
					<dim>1</dim>
				</port>
				<port id="1" precision="I64">
					<dim>1</dim>
				</port>
			</input>
			<output>
				<port id="2" precision="I64" names="/model/ae/decoder/Cast_5_output_0,/model/ae/decoder/Cast_6_output_0,/model/ae/decoder/Div_2_output_0,/model/ae/decoder/Unsqueeze_2_output_0">
					<dim>1</dim>
				</port>
			</output>
		</layer>
		<layer id="90" name="Constant_9684" type="Const" version="opset1">
			<data element_type="i64" shape="1" offset="48" size="8" />
			<output>
				<port id="0" precision="I64">
					<dim>1</dim>
				</port>
			</output>
		</layer>
		<layer id="91" name="Reshape_9685" type="Reshape" version="opset1">
			<data special_zero="false" />
			<input>
				<port id="0" precision="I64" />
				<port id="1" precision="I64">
					<dim>1</dim>
				</port>
			</input>
			<output>
				<port id="2" precision="I64" names="/model/Unsqueeze_1_output_0,/model/Unsqueeze_3_output_0">
					<dim>1</dim>
				</port>
			</output>
		</layer>
		<layer id="92" name="Constant_9674" type="Const" version="opset1">
			<data element_type="i64" shape="1" offset="2039448" size="8" />
			<output>
				<port id="0" precision="I64">
					<dim>1</dim>
				</port>
			</output>
		</layer>
		<layer id="93" name="/model/ae/decoder/Div_3" type="Divide" version="opset1">
			<data auto_broadcast="numpy" m_pythondiv="true" />
			<input>
				<port id="0" precision="I64">
					<dim>1</dim>
				</port>
				<port id="1" precision="I64">
					<dim>1</dim>
				</port>
			</input>
			<output>
				<port id="2" precision="I64" names="/model/ae/decoder/Cast_7_output_0,/model/ae/decoder/Cast_8_output_0,/model/ae/decoder/Div_3_output_0,/model/ae/decoder/Unsqueeze_3_output_0">
					<dim>1</dim>
				</port>
			</output>
		</layer>
		<layer id="94" name="/model/ae/decoder/Concat_2" type="Concat" version="opset1">
			<data axis="0" />
			<input>
				<port id="0" precision="I64">
					<dim>1</dim>
				</port>
				<port id="1" precision="I64">
					<dim>1</dim>
				</port>
			</input>
			<output>
				<port id="2" precision="I64" names="/model/ae/decoder/Cast_9_output_0,/model/ae/decoder/Concat_2_output_0">
					<dim>2</dim>
				</port>
			</output>
		</layer>
		<layer id="95" name="/model/ae/decoder/Concat_3" type="Concat" version="opset1">
			<data axis="0" />
			<input>
				<port id="0" precision="I64">
					<dim>2</dim>
				</port>
				<port id="1" precision="I64">
					<dim>2</dim>
				</port>
			</input>
			<output>
				<port id="2" precision="I64" names="/model/ae/decoder/Concat_3_output_0">
					<dim>4</dim>
				</port>
			</output>
		</layer>
		<layer id="96" name="/model/ae/decoder/Resize_1" type="Interpolate" version="opset11">
			<data mode="linear_onnx" shape_calculation_mode="sizes" coordinate_transformation_mode="half_pixel" nearest_mode="floor" antialias="false" pads_begin="0, 0, 0, 0" pads_end="0, 0, 0, 0" cube_coeff="-0.75" />
			<input>
				<port id="0" precision="FP32">
					<dim>-1</dim>
					<dim>64</dim>
					<dim>4</dim>
					<dim>4</dim>
				</port>
				<port id="1" precision="I64">
					<dim>4</dim>
				</port>
			</input>
			<output>
				<port id="2" precision="FP32" names="/model/ae/decoder/Resize_1_output_0">
					<dim>-1</dim>
					<dim>64</dim>
					<dim>8</dim>
					<dim>8</dim>
				</port>
			</output>
		</layer>
		<layer id="97" name="model.ae.decoder.deconv2.weight" type="Const" version="opset1">
			<data element_type="f32" shape="64, 64, 4, 4" offset="2039456" size="262144" />
			<output>
				<port id="0" precision="FP32" names="model.ae.decoder.deconv2.weight">
					<dim>64</dim>
					<dim>64</dim>
					<dim>4</dim>
					<dim>4</dim>
				</port>
			</output>
		</layer>
		<layer id="98" name="/model/ae/decoder/deconv2/Conv/WithoutBiases" type="Convolution" version="opset1">
			<data strides="1, 1" dilations="1, 1" pads_begin="2, 2" pads_end="2, 2" auto_pad="explicit" />
			<input>
				<port id="0" precision="FP32">
					<dim>-1</dim>
					<dim>64</dim>
					<dim>8</dim>
					<dim>8</dim>
				</port>
				<port id="1" precision="FP32">
					<dim>64</dim>
					<dim>64</dim>
					<dim>4</dim>
					<dim>4</dim>
				</port>
			</input>
			<output>
				<port id="2" precision="FP32">
					<dim>-1</dim>
					<dim>64</dim>
					<dim>9</dim>
					<dim>9</dim>
				</port>
			</output>
		</layer>
		<layer id="99" name="Reshape_672" type="Const" version="opset1">
			<data element_type="f32" shape="1, 64, 1, 1" offset="2301600" size="256" />
			<output>
				<port id="0" precision="FP32">
					<dim>1</dim>
					<dim>64</dim>
					<dim>1</dim>
					<dim>1</dim>
				</port>
			</output>
		</layer>
		<layer id="100" name="/model/ae/decoder/deconv2/Conv" type="Add" version="opset1">
			<data auto_broadcast="numpy" />
			<input>
				<port id="0" precision="FP32">
					<dim>-1</dim>
					<dim>64</dim>
					<dim>9</dim>
					<dim>9</dim>
				</port>
				<port id="1" precision="FP32">
					<dim>1</dim>
					<dim>64</dim>
					<dim>1</dim>
					<dim>1</dim>
				</port>
			</input>
			<output>
				<port id="2" precision="FP32" names="/model/ae/decoder/deconv2/Conv_output_0">
					<dim>-1</dim>
					<dim>64</dim>
					<dim>9</dim>
					<dim>9</dim>
				</port>
			</output>
		</layer>
		<layer id="101" name="/model/ae/decoder/Relu_1" type="ReLU" version="opset1">
			<input>
				<port id="0" precision="FP32">
					<dim>-1</dim>
					<dim>64</dim>
					<dim>9</dim>
					<dim>9</dim>
				</port>
			</input>
			<output>
				<port id="1" precision="FP32" names="/model/ae/decoder/Relu_1_output_0">
					<dim>-1</dim>
					<dim>64</dim>
					<dim>9</dim>
					<dim>9</dim>
				</port>
			</output>
		</layer>
		<layer id="102" name="/model/ae/decoder/Shape_2" type="ShapeOf" version="opset3">
			<data output_type="i64" />
			<input>
				<port id="0" precision="FP32">
					<dim>-1</dim>
					<dim>64</dim>
					<dim>9</dim>
					<dim>9</dim>
				</port>
			</input>
			<output>
				<port id="1" precision="I64" names="/model/ae/decoder/Shape_2_output_0">
					<dim>4</dim>
				</port>
			</output>
		</layer>
		<layer id="103" name="/model/ae/decoder/Constant_17" type="Const" version="opset1">
			<data element_type="i64" shape="1" offset="32" size="8" />
			<output>
				<port id="0" precision="I64" names="/model/ae/decoder/Constant_17_output_0">
					<dim>1</dim>
				</port>
			</output>
		</layer>
		<layer id="104" name="/model/ae/decoder/Constant_18" type="Const" version="opset1">
			<data element_type="i64" shape="1" offset="40" size="8" />
			<output>
				<port id="0" precision="I64" names="/model/ae/decoder/Constant_18_output_0">
					<dim>1</dim>
				</port>
			</output>
		</layer>
		<layer id="105" name="Broadcast_700" type="Const" version="opset1">
			<data element_type="i64" shape="1" offset="48" size="8" />
			<output>
				<port id="0" precision="I64">
					<dim>1</dim>
				</port>
			</output>
		</layer>
		<layer id="106" name="/model/ae/decoder/Constant_16" type="Const" version="opset1">
			<data element_type="i64" shape="1" offset="32" size="8" />
			<output>
				<port id="0" precision="I64" names="/model/ae/decoder/Constant_16_output_0">
					<dim>1</dim>
				</port>
			</output>
		</layer>
		<layer id="107" name="/model/ae/decoder/Slice_2" type="Slice" version="opset8">
			<input>
				<port id="0" precision="I64">
					<dim>4</dim>
				</port>
				<port id="1" precision="I64">
					<dim>1</dim>
				</port>
				<port id="2" precision="I64">
					<dim>1</dim>
				</port>
				<port id="3" precision="I64">
					<dim>1</dim>
				</port>
				<port id="4" precision="I64">
					<dim>1</dim>
				</port>
			</input>
			<output>
				<port id="5" precision="I64" names="/model/ae/decoder/Slice_2_output_0">
					<dim>2</dim>
				</port>
			</output>
		</layer>
		<layer id="108" name="/model/ae/decoder/Constant_12" type="Const" version="opset1">
			<data element_type="i64" shape="" offset="2301856" size="8" />
			<output>
				<port id="0" precision="I64" names="/model/ae/decoder/Constant_12_output_0" />
			</output>
		</layer>
		<layer id="109" name="/model/ae/decoder/Div_4" type="Divide" version="opset1">
			<data auto_broadcast="numpy" m_pythondiv="true" />
			<input>
				<port id="0" precision="I64" />
				<port id="1" precision="I64" />
			</input>
			<output>
				<port id="2" precision="I64" names="/model/ae/decoder/Cast_10_output_0,/model/ae/decoder/Cast_11_output_0,/model/ae/decoder/Div_4_output_0" />
			</output>
		</layer>
		<layer id="110" name="Constant_8900" type="Const" version="opset1">
			<data element_type="i64" shape="" offset="1777032" size="8" />
			<output>
				<port id="0" precision="I64" />
			</output>
		</layer>
		<layer id="111" name="/model/ae/decoder/Sub_2" type="Add" version="opset1">
			<data auto_broadcast="numpy" />
			<input>
				<port id="0" precision="I64" />
				<port id="1" precision="I64" />
			</input>
			<output>
				<port id="2" precision="I64" names="/model/ae/decoder/Sub_2_output_0" />
			</output>
		</layer>
		<layer id="112" name="Constant_262" type="Const" version="opset1">
			<data element_type="i64" shape="1" offset="32" size="8" />
			<output>
				<port id="0" precision="I64" names="onnx::Unsqueeze_220">
					<dim>1</dim>
				</port>
			</output>
		</layer>
		<layer id="113" name="/model/ae/decoder/Unsqueeze_4" type="Unsqueeze" version="opset1">
			<input>
				<port id="0" precision="I64" />
				<port id="1" precision="I64">
					<dim>1</dim>
				</port>
			</input>
			<output>
				<port id="2" precision="I64" names="/model/ae/decoder/Unsqueeze_4_output_0">
					<dim>1</dim>
				</port>
			</output>
		</layer>
		<layer id="114" name="/model/ae/decoder/Constant_14" type="Const" version="opset1">
			<data element_type="i64" shape="" offset="2301856" size="8" />
			<output>
				<port id="0" precision="I64" names="/model/ae/decoder/Constant_14_output_0" />
			</output>
		</layer>
		<layer id="115" name="/model/ae/decoder/Div_5" type="Divide" version="opset1">
			<data auto_broadcast="numpy" m_pythondiv="true" />
			<input>
				<port id="0" precision="I64" />
				<port id="1" precision="I64" />
			</input>
			<output>
				<port id="2" precision="I64" names="/model/ae/decoder/Cast_12_output_0,/model/ae/decoder/Cast_13_output_0,/model/ae/decoder/Div_5_output_0" />
			</output>
		</layer>
		<layer id="116" name="Constant_8904" type="Const" version="opset1">
			<data element_type="i64" shape="" offset="1777032" size="8" />
			<output>
				<port id="0" precision="I64" />
			</output>
		</layer>
		<layer id="117" name="/model/ae/decoder/Sub_3" type="Add" version="opset1">
			<data auto_broadcast="numpy" />
			<input>
				<port id="0" precision="I64" />
				<port id="1" precision="I64" />
			</input>
			<output>
				<port id="2" precision="I64" names="/model/ae/decoder/Sub_3_output_0" />
			</output>
		</layer>
		<layer id="118" name="Constant_264" type="Const" version="opset1">
			<data element_type="i64" shape="1" offset="32" size="8" />
			<output>
				<port id="0" precision="I64" names="onnx::Unsqueeze_222">
					<dim>1</dim>
				</port>
			</output>
		</layer>
		<layer id="119" name="/model/ae/decoder/Unsqueeze_5" type="Unsqueeze" version="opset1">
			<input>
				<port id="0" precision="I64" />
				<port id="1" precision="I64">
					<dim>1</dim>
				</port>
			</input>
			<output>
				<port id="2" precision="I64" names="/model/ae/decoder/Unsqueeze_5_output_0">
					<dim>1</dim>
				</port>
			</output>
		</layer>
		<layer id="120" name="/model/ae/decoder/Concat_4" type="Concat" version="opset1">
			<data axis="0" />
			<input>
				<port id="0" precision="I64">
					<dim>1</dim>
				</port>
				<port id="1" precision="I64">
					<dim>1</dim>
				</port>
			</input>
			<output>
				<port id="2" precision="I64" names="/model/ae/decoder/Cast_14_output_0,/model/ae/decoder/Concat_4_output_0">
					<dim>2</dim>
				</port>
			</output>
		</layer>
		<layer id="121" name="/model/ae/decoder/Concat_5" type="Concat" version="opset1">
			<data axis="0" />
			<input>
				<port id="0" precision="I64">
					<dim>2</dim>
				</port>
				<port id="1" precision="I64">
					<dim>2</dim>
				</port>
			</input>
			<output>
				<port id="2" precision="I64" names="/model/ae/decoder/Concat_5_output_0">
					<dim>4</dim>
				</port>
			</output>
		</layer>
		<layer id="122" name="/model/ae/decoder/Resize_2" type="Interpolate" version="opset11">
			<data mode="linear_onnx" shape_calculation_mode="sizes" coordinate_transformation_mode="half_pixel" nearest_mode="floor" antialias="false" pads_begin="0, 0, 0, 0" pads_end="0, 0, 0, 0" cube_coeff="-0.75" />
			<input>
				<port id="0" precision="FP32">
					<dim>-1</dim>
					<dim>64</dim>
					<dim>9</dim>
					<dim>9</dim>
				</port>
				<port id="1" precision="I64">
					<dim>4</dim>
				</port>
			</input>
			<output>
				<port id="2" precision="FP32" names="/model/ae/decoder/Resize_2_output_0">
					<dim>-1</dim>
					<dim>64</dim>
					<dim>15</dim>
					<dim>15</dim>
				</port>
			</output>
		</layer>
		<layer id="123" name="model.ae.decoder.deconv3.weight" type="Const" version="opset1">
			<data element_type="f32" shape="64, 64, 4, 4" offset="2301864" size="262144" />
			<output>
				<port id="0" precision="FP32" names="model.ae.decoder.deconv3.weight">
					<dim>64</dim>
					<dim>64</dim>
					<dim>4</dim>
					<dim>4</dim>
				</port>
			</output>
		</layer>
		<layer id="124" name="/model/ae/decoder/deconv3/Conv/WithoutBiases" type="Convolution" version="opset1">
			<data strides="1, 1" dilations="1, 1" pads_begin="2, 2" pads_end="2, 2" auto_pad="explicit" />
			<input>
				<port id="0" precision="FP32">
					<dim>-1</dim>
					<dim>64</dim>
					<dim>15</dim>
					<dim>15</dim>
				</port>
				<port id="1" precision="FP32">
					<dim>64</dim>
					<dim>64</dim>
					<dim>4</dim>
					<dim>4</dim>
				</port>
			</input>
			<output>
				<port id="2" precision="FP32">
					<dim>-1</dim>
					<dim>64</dim>
					<dim>16</dim>
					<dim>16</dim>
				</port>
			</output>
		</layer>
		<layer id="125" name="Reshape_826" type="Const" version="opset1">
			<data element_type="f32" shape="1, 64, 1, 1" offset="2564008" size="256" />
			<output>
				<port id="0" precision="FP32">
					<dim>1</dim>
					<dim>64</dim>
					<dim>1</dim>
					<dim>1</dim>
				</port>
			</output>
		</layer>
		<layer id="126" name="/model/ae/decoder/deconv3/Conv" type="Add" version="opset1">
			<data auto_broadcast="numpy" />
			<input>
				<port id="0" precision="FP32">
					<dim>-1</dim>
					<dim>64</dim>
					<dim>16</dim>
					<dim>16</dim>
				</port>
				<port id="1" precision="FP32">
					<dim>1</dim>
					<dim>64</dim>
					<dim>1</dim>
					<dim>1</dim>
				</port>
			</input>
			<output>
				<port id="2" precision="FP32" names="/model/ae/decoder/deconv3/Conv_output_0">
					<dim>-1</dim>
					<dim>64</dim>
					<dim>16</dim>
					<dim>16</dim>
				</port>
			</output>
		</layer>
		<layer id="127" name="/model/ae/decoder/Relu_2" type="ReLU" version="opset1">
			<input>
				<port id="0" precision="FP32">
					<dim>-1</dim>
					<dim>64</dim>
					<dim>16</dim>
					<dim>16</dim>
				</port>
			</input>
			<output>
				<port id="1" precision="FP32" names="/model/ae/decoder/Relu_2_output_0">
					<dim>-1</dim>
					<dim>64</dim>
					<dim>16</dim>
					<dim>16</dim>
				</port>
			</output>
		</layer>
		<layer id="128" name="/model/ae/decoder/Shape_3" type="ShapeOf" version="opset3">
			<data output_type="i64" />
			<input>
				<port id="0" precision="FP32">
					<dim>-1</dim>
					<dim>64</dim>
					<dim>16</dim>
					<dim>16</dim>
				</port>
			</input>
			<output>
				<port id="1" precision="I64" names="/model/ae/decoder/Shape_3_output_0">
					<dim>4</dim>
				</port>
			</output>
		</layer>
		<layer id="129" name="/model/ae/decoder/Constant_22" type="Const" version="opset1">
			<data element_type="i64" shape="1" offset="32" size="8" />
			<output>
				<port id="0" precision="I64" names="/model/ae/decoder/Constant_22_output_0">
					<dim>1</dim>
				</port>
			</output>
		</layer>
		<layer id="130" name="/model/ae/decoder/Constant_23" type="Const" version="opset1">
			<data element_type="i64" shape="1" offset="40" size="8" />
			<output>
				<port id="0" precision="I64" names="/model/ae/decoder/Constant_23_output_0">
					<dim>1</dim>
				</port>
			</output>
		</layer>
		<layer id="131" name="Broadcast_850" type="Const" version="opset1">
			<data element_type="i64" shape="1" offset="48" size="8" />
			<output>
				<port id="0" precision="I64">
					<dim>1</dim>
				</port>
			</output>
		</layer>
		<layer id="132" name="/model/ae/decoder/Constant_21" type="Const" version="opset1">
			<data element_type="i64" shape="1" offset="32" size="8" />
			<output>
				<port id="0" precision="I64" names="/model/ae/decoder/Constant_21_output_0">
					<dim>1</dim>
				</port>
			</output>
		</layer>
		<layer id="133" name="/model/ae/decoder/Slice_3" type="Slice" version="opset8">
			<input>
				<port id="0" precision="I64">
					<dim>4</dim>
				</port>
				<port id="1" precision="I64">
					<dim>1</dim>
				</port>
				<port id="2" precision="I64">
					<dim>1</dim>
				</port>
				<port id="3" precision="I64">
					<dim>1</dim>
				</port>
				<port id="4" precision="I64">
					<dim>1</dim>
				</port>
			</input>
			<output>
				<port id="5" precision="I64" names="/model/ae/decoder/Slice_3_output_0">
					<dim>2</dim>
				</port>
			</output>
		</layer>
		<layer id="134" name="Constant_9677" type="Const" version="opset1">
			<data element_type="i64" shape="1" offset="2564264" size="8" />
			<output>
				<port id="0" precision="I64">
					<dim>1</dim>
				</port>
			</output>
		</layer>
		<layer id="135" name="/model/ae/decoder/Div_6" type="Divide" version="opset1">
			<data auto_broadcast="numpy" m_pythondiv="true" />
			<input>
				<port id="0" precision="I64">
					<dim>1</dim>
				</port>
				<port id="1" precision="I64">
					<dim>1</dim>
				</port>
			</input>
			<output>
				<port id="2" precision="I64" names="/model/ae/decoder/Cast_15_output_0,/model/ae/decoder/Cast_16_output_0,/model/ae/decoder/Div_6_output_0,/model/ae/decoder/Unsqueeze_6_output_0">
					<dim>1</dim>
				</port>
			</output>
		</layer>
		<layer id="136" name="Constant_9680" type="Const" version="opset1">
			<data element_type="i64" shape="1" offset="2564264" size="8" />
			<output>
				<port id="0" precision="I64">
					<dim>1</dim>
				</port>
			</output>
		</layer>
		<layer id="137" name="/model/ae/decoder/Div_7" type="Divide" version="opset1">
			<data auto_broadcast="numpy" m_pythondiv="true" />
			<input>
				<port id="0" precision="I64">
					<dim>1</dim>
				</port>
				<port id="1" precision="I64">
					<dim>1</dim>
				</port>
			</input>
			<output>
				<port id="2" precision="I64" names="/model/ae/decoder/Cast_17_output_0,/model/ae/decoder/Cast_18_output_0,/model/ae/decoder/Div_7_output_0,/model/ae/decoder/Unsqueeze_7_output_0">
					<dim>1</dim>
				</port>
			</output>
		</layer>
		<layer id="138" name="/model/ae/decoder/Concat_6" type="Concat" version="opset1">
			<data axis="0" />
			<input>
				<port id="0" precision="I64">
					<dim>1</dim>
				</port>
				<port id="1" precision="I64">
					<dim>1</dim>
				</port>
			</input>
			<output>
				<port id="2" precision="I64" names="/model/ae/decoder/Cast_19_output_0,/model/ae/decoder/Concat_6_output_0">
					<dim>2</dim>
				</port>
			</output>
		</layer>
		<layer id="139" name="/model/ae/decoder/Concat_7" type="Concat" version="opset1">
			<data axis="0" />
			<input>
				<port id="0" precision="I64">
					<dim>2</dim>
				</port>
				<port id="1" precision="I64">
					<dim>2</dim>
				</port>
			</input>
			<output>
				<port id="2" precision="I64" names="/model/ae/decoder/Concat_7_output_0">
					<dim>4</dim>
				</port>
			</output>
		</layer>
		<layer id="140" name="/model/ae/decoder/Resize_3" type="Interpolate" version="opset11">
			<data mode="linear_onnx" shape_calculation_mode="sizes" coordinate_transformation_mode="half_pixel" nearest_mode="floor" antialias="false" pads_begin="0, 0, 0, 0" pads_end="0, 0, 0, 0" cube_coeff="-0.75" />
			<input>
				<port id="0" precision="FP32">
					<dim>-1</dim>
					<dim>64</dim>
					<dim>16</dim>
					<dim>16</dim>
				</port>
				<port id="1" precision="I64">
					<dim>4</dim>
				</port>
			</input>
			<output>
				<port id="2" precision="FP32" names="/model/ae/decoder/Resize_3_output_0">
					<dim>-1</dim>
					<dim>64</dim>
					<dim>32</dim>
					<dim>32</dim>
				</port>
			</output>
		</layer>
		<layer id="141" name="model.ae.decoder.deconv4.weight" type="Const" version="opset1">
			<data element_type="f32" shape="64, 64, 4, 4" offset="2564272" size="262144" />
			<output>
				<port id="0" precision="FP32" names="model.ae.decoder.deconv4.weight">
					<dim>64</dim>
					<dim>64</dim>
					<dim>4</dim>
					<dim>4</dim>
				</port>
			</output>
		</layer>
		<layer id="142" name="/model/ae/decoder/deconv4/Conv/WithoutBiases" type="Convolution" version="opset1">
			<data strides="1, 1" dilations="1, 1" pads_begin="2, 2" pads_end="2, 2" auto_pad="explicit" />
			<input>
				<port id="0" precision="FP32">
					<dim>-1</dim>
					<dim>64</dim>
					<dim>32</dim>
					<dim>32</dim>
				</port>
				<port id="1" precision="FP32">
					<dim>64</dim>
					<dim>64</dim>
					<dim>4</dim>
					<dim>4</dim>
				</port>
			</input>
			<output>
				<port id="2" precision="FP32">
					<dim>-1</dim>
					<dim>64</dim>
					<dim>33</dim>
					<dim>33</dim>
				</port>
			</output>
		</layer>
		<layer id="143" name="Reshape_976" type="Const" version="opset1">
			<data element_type="f32" shape="1, 64, 1, 1" offset="2826416" size="256" />
			<output>
				<port id="0" precision="FP32">
					<dim>1</dim>
					<dim>64</dim>
					<dim>1</dim>
					<dim>1</dim>
				</port>
			</output>
		</layer>
		<layer id="144" name="/model/ae/decoder/deconv4/Conv" type="Add" version="opset1">
			<data auto_broadcast="numpy" />
			<input>
				<port id="0" precision="FP32">
					<dim>-1</dim>
					<dim>64</dim>
					<dim>33</dim>
					<dim>33</dim>
				</port>
				<port id="1" precision="FP32">
					<dim>1</dim>
					<dim>64</dim>
					<dim>1</dim>
					<dim>1</dim>
				</port>
			</input>
			<output>
				<port id="2" precision="FP32" names="/model/ae/decoder/deconv4/Conv_output_0">
					<dim>-1</dim>
					<dim>64</dim>
					<dim>33</dim>
					<dim>33</dim>
				</port>
			</output>
		</layer>
		<layer id="145" name="/model/ae/decoder/Relu_3" type="ReLU" version="opset1">
			<input>
				<port id="0" precision="FP32">
					<dim>-1</dim>
					<dim>64</dim>
					<dim>33</dim>
					<dim>33</dim>
				</port>
			</input>
			<output>
				<port id="1" precision="FP32" names="/model/ae/decoder/Relu_3_output_0">
					<dim>-1</dim>
					<dim>64</dim>
					<dim>33</dim>
					<dim>33</dim>
				</port>
			</output>
		</layer>
		<layer id="146" name="/model/ae/decoder/Shape_4" type="ShapeOf" version="opset3">
			<data output_type="i64" />
			<input>
				<port id="0" precision="FP32">
					<dim>-1</dim>
					<dim>64</dim>
					<dim>33</dim>
					<dim>33</dim>
				</port>
			</input>
			<output>
				<port id="1" precision="I64" names="/model/ae/decoder/Shape_4_output_0">
					<dim>4</dim>
				</port>
			</output>
		</layer>
		<layer id="147" name="/model/ae/decoder/Constant_29" type="Const" version="opset1">
			<data element_type="i64" shape="1" offset="32" size="8" />
			<output>
				<port id="0" precision="I64" names="/model/ae/decoder/Constant_29_output_0">
					<dim>1</dim>
				</port>
			</output>
		</layer>
		<layer id="148" name="/model/ae/decoder/Constant_30" type="Const" version="opset1">
			<data element_type="i64" shape="1" offset="40" size="8" />
			<output>
				<port id="0" precision="I64" names="/model/ae/decoder/Constant_30_output_0">
					<dim>1</dim>
				</port>
			</output>
		</layer>
		<layer id="149" name="Broadcast_1004" type="Const" version="opset1">
			<data element_type="i64" shape="1" offset="48" size="8" />
			<output>
				<port id="0" precision="I64">
					<dim>1</dim>
				</port>
			</output>
		</layer>
		<layer id="150" name="/model/ae/decoder/Constant_28" type="Const" version="opset1">
			<data element_type="i64" shape="1" offset="32" size="8" />
			<output>
				<port id="0" precision="I64" names="/model/ae/decoder/Constant_28_output_0">
					<dim>1</dim>
				</port>
			</output>
		</layer>
		<layer id="151" name="/model/ae/decoder/Slice_4" type="Slice" version="opset8">
			<input>
				<port id="0" precision="I64">
					<dim>4</dim>
				</port>
				<port id="1" precision="I64">
					<dim>1</dim>
				</port>
				<port id="2" precision="I64">
					<dim>1</dim>
				</port>
				<port id="3" precision="I64">
					<dim>1</dim>
				</port>
				<port id="4" precision="I64">
					<dim>1</dim>
				</port>
			</input>
			<output>
				<port id="5" precision="I64" names="/model/ae/decoder/Slice_4_output_0">
					<dim>2</dim>
				</port>
			</output>
		</layer>
		<layer id="152" name="/model/ae/decoder/Constant_24" type="Const" version="opset1">
			<data element_type="i64" shape="" offset="2826672" size="8" />
			<output>
				<port id="0" precision="I64" names="/model/ae/decoder/Constant_24_output_0" />
			</output>
		</layer>
		<layer id="153" name="/model/ae/decoder/Div_8" type="Divide" version="opset1">
			<data auto_broadcast="numpy" m_pythondiv="true" />
			<input>
				<port id="0" precision="I64" />
				<port id="1" precision="I64" />
			</input>
			<output>
				<port id="2" precision="I64" names="/model/ae/decoder/Cast_20_output_0,/model/ae/decoder/Cast_21_output_0,/model/ae/decoder/Div_8_output_0" />
			</output>
		</layer>
		<layer id="154" name="Constant_8908" type="Const" version="opset1">
			<data element_type="i64" shape="" offset="1777032" size="8" />
			<output>
				<port id="0" precision="I64" />
			</output>
		</layer>
		<layer id="155" name="/model/ae/decoder/Sub_4" type="Add" version="opset1">
			<data auto_broadcast="numpy" />
			<input>
				<port id="0" precision="I64" />
				<port id="1" precision="I64" />
			</input>
			<output>
				<port id="2" precision="I64" names="/model/ae/decoder/Sub_4_output_0" />
			</output>
		</layer>
		<layer id="156" name="Constant_312" type="Const" version="opset1">
			<data element_type="i64" shape="1" offset="32" size="8" />
			<output>
				<port id="0" precision="I64" names="onnx::Unsqueeze_274">
					<dim>1</dim>
				</port>
			</output>
		</layer>
		<layer id="157" name="/model/ae/decoder/Unsqueeze_8" type="Unsqueeze" version="opset1">
			<input>
				<port id="0" precision="I64" />
				<port id="1" precision="I64">
					<dim>1</dim>
				</port>
			</input>
			<output>
				<port id="2" precision="I64" names="/model/ae/decoder/Unsqueeze_8_output_0">
					<dim>1</dim>
				</port>
			</output>
		</layer>
		<layer id="158" name="/model/ae/decoder/Constant_26" type="Const" version="opset1">
			<data element_type="i64" shape="" offset="2826672" size="8" />
			<output>
				<port id="0" precision="I64" names="/model/ae/decoder/Constant_26_output_0" />
			</output>
		</layer>
		<layer id="159" name="/model/ae/decoder/Div_9" type="Divide" version="opset1">
			<data auto_broadcast="numpy" m_pythondiv="true" />
			<input>
				<port id="0" precision="I64" />
				<port id="1" precision="I64" />
			</input>
			<output>
				<port id="2" precision="I64" names="/model/ae/decoder/Cast_22_output_0,/model/ae/decoder/Cast_23_output_0,/model/ae/decoder/Div_9_output_0" />
			</output>
		</layer>
		<layer id="160" name="Constant_8912" type="Const" version="opset1">
			<data element_type="i64" shape="" offset="1777032" size="8" />
			<output>
				<port id="0" precision="I64" />
			</output>
		</layer>
		<layer id="161" name="/model/ae/decoder/Sub_5" type="Add" version="opset1">
			<data auto_broadcast="numpy" />
			<input>
				<port id="0" precision="I64" />
				<port id="1" precision="I64" />
			</input>
			<output>
				<port id="2" precision="I64" names="/model/ae/decoder/Sub_5_output_0" />
			</output>
		</layer>
		<layer id="162" name="Constant_314" type="Const" version="opset1">
			<data element_type="i64" shape="1" offset="32" size="8" />
			<output>
				<port id="0" precision="I64" names="onnx::Unsqueeze_276">
					<dim>1</dim>
				</port>
			</output>
		</layer>
		<layer id="163" name="/model/ae/decoder/Unsqueeze_9" type="Unsqueeze" version="opset1">
			<input>
				<port id="0" precision="I64" />
				<port id="1" precision="I64">
					<dim>1</dim>
				</port>
			</input>
			<output>
				<port id="2" precision="I64" names="/model/ae/decoder/Unsqueeze_9_output_0">
					<dim>1</dim>
				</port>
			</output>
		</layer>
		<layer id="164" name="/model/ae/decoder/Concat_8" type="Concat" version="opset1">
			<data axis="0" />
			<input>
				<port id="0" precision="I64">
					<dim>1</dim>
				</port>
				<port id="1" precision="I64">
					<dim>1</dim>
				</port>
			</input>
			<output>
				<port id="2" precision="I64" names="/model/ae/decoder/Cast_24_output_0,/model/ae/decoder/Concat_8_output_0">
					<dim>2</dim>
				</port>
			</output>
		</layer>
		<layer id="165" name="/model/ae/decoder/Concat_9" type="Concat" version="opset1">
			<data axis="0" />
			<input>
				<port id="0" precision="I64">
					<dim>2</dim>
				</port>
				<port id="1" precision="I64">
					<dim>2</dim>
				</port>
			</input>
			<output>
				<port id="2" precision="I64" names="/model/ae/decoder/Concat_9_output_0">
					<dim>4</dim>
				</port>
			</output>
		</layer>
		<layer id="166" name="/model/ae/decoder/Resize_4" type="Interpolate" version="opset11">
			<data mode="linear_onnx" shape_calculation_mode="sizes" coordinate_transformation_mode="half_pixel" nearest_mode="floor" antialias="false" pads_begin="0, 0, 0, 0" pads_end="0, 0, 0, 0" cube_coeff="-0.75" />
			<input>
				<port id="0" precision="FP32">
					<dim>-1</dim>
					<dim>64</dim>
					<dim>33</dim>
					<dim>33</dim>
				</port>
				<port id="1" precision="I64">
					<dim>4</dim>
				</port>
			</input>
			<output>
				<port id="2" precision="FP32" names="/model/ae/decoder/Resize_4_output_0">
					<dim>-1</dim>
					<dim>64</dim>
					<dim>63</dim>
					<dim>63</dim>
				</port>
			</output>
		</layer>
		<layer id="167" name="model.ae.decoder.deconv5.weight" type="Const" version="opset1">
			<data element_type="f32" shape="64, 64, 4, 4" offset="2826680" size="262144" />
			<output>
				<port id="0" precision="FP32" names="model.ae.decoder.deconv5.weight">
					<dim>64</dim>
					<dim>64</dim>
					<dim>4</dim>
					<dim>4</dim>
				</port>
			</output>
		</layer>
		<layer id="168" name="/model/ae/decoder/deconv5/Conv/WithoutBiases" type="Convolution" version="opset1">
			<data strides="1, 1" dilations="1, 1" pads_begin="2, 2" pads_end="2, 2" auto_pad="explicit" />
			<input>
				<port id="0" precision="FP32">
					<dim>-1</dim>
					<dim>64</dim>
					<dim>63</dim>
					<dim>63</dim>
				</port>
				<port id="1" precision="FP32">
					<dim>64</dim>
					<dim>64</dim>
					<dim>4</dim>
					<dim>4</dim>
				</port>
			</input>
			<output>
				<port id="2" precision="FP32">
					<dim>-1</dim>
					<dim>64</dim>
					<dim>64</dim>
					<dim>64</dim>
				</port>
			</output>
		</layer>
		<layer id="169" name="Reshape_1130" type="Const" version="opset1">
			<data element_type="f32" shape="1, 64, 1, 1" offset="3088824" size="256" />
			<output>
				<port id="0" precision="FP32">
					<dim>1</dim>
					<dim>64</dim>
					<dim>1</dim>
					<dim>1</dim>
				</port>
			</output>
		</layer>
		<layer id="170" name="/model/ae/decoder/deconv5/Conv" type="Add" version="opset1">
			<data auto_broadcast="numpy" />
			<input>
				<port id="0" precision="FP32">
					<dim>-1</dim>
					<dim>64</dim>
					<dim>64</dim>
					<dim>64</dim>
				</port>
				<port id="1" precision="FP32">
					<dim>1</dim>
					<dim>64</dim>
					<dim>1</dim>
					<dim>1</dim>
				</port>
			</input>
			<output>
				<port id="2" precision="FP32" names="/model/ae/decoder/deconv5/Conv_output_0">
					<dim>-1</dim>
					<dim>64</dim>
					<dim>64</dim>
					<dim>64</dim>
				</port>
			</output>
		</layer>
		<layer id="171" name="/model/ae/decoder/Relu_4" type="ReLU" version="opset1">
			<input>
				<port id="0" precision="FP32">
					<dim>-1</dim>
					<dim>64</dim>
					<dim>64</dim>
					<dim>64</dim>
				</port>
			</input>
			<output>
				<port id="1" precision="FP32" names="/model/ae/decoder/Relu_4_output_0">
					<dim>-1</dim>
					<dim>64</dim>
					<dim>64</dim>
					<dim>64</dim>
				</port>
			</output>
		</layer>
		<layer id="172" name="/model/ae/decoder/Shape_5" type="ShapeOf" version="opset3">
			<data output_type="i64" />
			<input>
				<port id="0" precision="FP32">
					<dim>-1</dim>
					<dim>64</dim>
					<dim>64</dim>
					<dim>64</dim>
				</port>
			</input>
			<output>
				<port id="1" precision="I64" names="/model/ae/decoder/Shape_5_output_0">
					<dim>4</dim>
				</port>
			</output>
		</layer>
		<layer id="173" name="/model/ae/decoder/Constant_36" type="Const" version="opset1">
			<data element_type="i64" shape="1" offset="32" size="8" />
			<output>
				<port id="0" precision="I64" names="/model/ae/decoder/Constant_36_output_0">
					<dim>1</dim>
				</port>
			</output>
		</layer>
		<layer id="174" name="/model/ae/decoder/Constant_37" type="Const" version="opset1">
			<data element_type="i64" shape="1" offset="40" size="8" />
			<output>
				<port id="0" precision="I64" names="/model/ae/decoder/Constant_37_output_0">
					<dim>1</dim>
				</port>
			</output>
		</layer>
		<layer id="175" name="Broadcast_1158" type="Const" version="opset1">
			<data element_type="i64" shape="1" offset="48" size="8" />
			<output>
				<port id="0" precision="I64">
					<dim>1</dim>
				</port>
			</output>
		</layer>
		<layer id="176" name="/model/ae/decoder/Constant_35" type="Const" version="opset1">
			<data element_type="i64" shape="1" offset="32" size="8" />
			<output>
				<port id="0" precision="I64" names="/model/ae/decoder/Constant_35_output_0">
					<dim>1</dim>
				</port>
			</output>
		</layer>
		<layer id="177" name="/model/ae/decoder/Slice_5" type="Slice" version="opset8">
			<input>
				<port id="0" precision="I64">
					<dim>4</dim>
				</port>
				<port id="1" precision="I64">
					<dim>1</dim>
				</port>
				<port id="2" precision="I64">
					<dim>1</dim>
				</port>
				<port id="3" precision="I64">
					<dim>1</dim>
				</port>
				<port id="4" precision="I64">
					<dim>1</dim>
				</port>
			</input>
			<output>
				<port id="5" precision="I64" names="/model/ae/decoder/Slice_5_output_0">
					<dim>2</dim>
				</port>
			</output>
		</layer>
		<layer id="178" name="/model/ae/decoder/Constant_31" type="Const" version="opset1">
			<data element_type="i64" shape="" offset="40" size="8" />
			<output>
				<port id="0" precision="I64" names="/model/ae/decoder/Constant_31_output_0" />
			</output>
		</layer>
		<layer id="179" name="/model/ae/decoder/Div_10" type="Divide" version="opset1">
			<data auto_broadcast="numpy" m_pythondiv="true" />
			<input>
				<port id="0" precision="I64" />
				<port id="1" precision="I64" />
			</input>
			<output>
				<port id="2" precision="I64" names="/model/ae/decoder/Cast_25_output_0,/model/ae/decoder/Cast_26_output_0,/model/ae/decoder/Div_10_output_0" />
			</output>
		</layer>
		<layer id="180" name="Constant_8916" type="Const" version="opset1">
			<data element_type="i64" shape="" offset="1777032" size="8" />
			<output>
				<port id="0" precision="I64" />
			</output>
		</layer>
		<layer id="181" name="/model/ae/decoder/Sub_6" type="Add" version="opset1">
			<data auto_broadcast="numpy" />
			<input>
				<port id="0" precision="I64" />
				<port id="1" precision="I64" />
			</input>
			<output>
				<port id="2" precision="I64" names="/model/ae/decoder/Sub_6_output_0" />
			</output>
		</layer>
		<layer id="182" name="Constant_339" type="Const" version="opset1">
			<data element_type="i64" shape="1" offset="32" size="8" />
			<output>
				<port id="0" precision="I64" names="onnx::Unsqueeze_303">
					<dim>1</dim>
				</port>
			</output>
		</layer>
		<layer id="183" name="/model/ae/decoder/Unsqueeze_10" type="Unsqueeze" version="opset1">
			<input>
				<port id="0" precision="I64" />
				<port id="1" precision="I64">
					<dim>1</dim>
				</port>
			</input>
			<output>
				<port id="2" precision="I64" names="/model/ae/decoder/Unsqueeze_10_output_0">
					<dim>1</dim>
				</port>
			</output>
		</layer>
		<layer id="184" name="/model/ae/decoder/Constant_33" type="Const" version="opset1">
			<data element_type="i64" shape="" offset="40" size="8" />
			<output>
				<port id="0" precision="I64" names="/model/ae/decoder/Constant_33_output_0" />
			</output>
		</layer>
		<layer id="185" name="/model/ae/decoder/Div_11" type="Divide" version="opset1">
			<data auto_broadcast="numpy" m_pythondiv="true" />
			<input>
				<port id="0" precision="I64" />
				<port id="1" precision="I64" />
			</input>
			<output>
				<port id="2" precision="I64" names="/model/ae/decoder/Cast_27_output_0,/model/ae/decoder/Cast_28_output_0,/model/ae/decoder/Div_11_output_0" />
			</output>
		</layer>
		<layer id="186" name="Constant_8920" type="Const" version="opset1">
			<data element_type="i64" shape="" offset="1777032" size="8" />
			<output>
				<port id="0" precision="I64" />
			</output>
		</layer>
		<layer id="187" name="/model/ae/decoder/Sub_7" type="Add" version="opset1">
			<data auto_broadcast="numpy" />
			<input>
				<port id="0" precision="I64" />
				<port id="1" precision="I64" />
			</input>
			<output>
				<port id="2" precision="I64" names="/model/ae/decoder/Sub_7_output_0" />
			</output>
		</layer>
		<layer id="188" name="Constant_341" type="Const" version="opset1">
			<data element_type="i64" shape="1" offset="32" size="8" />
			<output>
				<port id="0" precision="I64" names="onnx::Unsqueeze_305">
					<dim>1</dim>
				</port>
			</output>
		</layer>
		<layer id="189" name="/model/ae/decoder/Unsqueeze_11" type="Unsqueeze" version="opset1">
			<input>
				<port id="0" precision="I64" />
				<port id="1" precision="I64">
					<dim>1</dim>
				</port>
			</input>
			<output>
				<port id="2" precision="I64" names="/model/ae/decoder/Unsqueeze_11_output_0">
					<dim>1</dim>
				</port>
			</output>
		</layer>
		<layer id="190" name="/model/ae/decoder/Concat_10" type="Concat" version="opset1">
			<data axis="0" />
			<input>
				<port id="0" precision="I64">
					<dim>1</dim>
				</port>
				<port id="1" precision="I64">
					<dim>1</dim>
				</port>
			</input>
			<output>
				<port id="2" precision="I64" names="/model/ae/decoder/Cast_29_output_0,/model/ae/decoder/Concat_10_output_0">
					<dim>2</dim>
				</port>
			</output>
		</layer>
		<layer id="191" name="/model/ae/decoder/Concat_11" type="Concat" version="opset1">
			<data axis="0" />
			<input>
				<port id="0" precision="I64">
					<dim>2</dim>
				</port>
				<port id="1" precision="I64">
					<dim>2</dim>
				</port>
			</input>
			<output>
				<port id="2" precision="I64" names="/model/ae/decoder/Concat_11_output_0">
					<dim>4</dim>
				</port>
			</output>
		</layer>
		<layer id="192" name="/model/ae/decoder/Resize_5" type="Interpolate" version="opset11">
			<data mode="linear_onnx" shape_calculation_mode="sizes" coordinate_transformation_mode="half_pixel" nearest_mode="floor" antialias="false" pads_begin="0, 0, 0, 0" pads_end="0, 0, 0, 0" cube_coeff="-0.75" />
			<input>
				<port id="0" precision="FP32">
					<dim>-1</dim>
					<dim>64</dim>
					<dim>64</dim>
					<dim>64</dim>
				</port>
				<port id="1" precision="I64">
					<dim>4</dim>
				</port>
			</input>
			<output>
				<port id="2" precision="FP32" names="/model/ae/decoder/Resize_5_output_0">
					<dim>-1</dim>
					<dim>64</dim>
					<dim>127</dim>
					<dim>127</dim>
				</port>
			</output>
		</layer>
		<layer id="193" name="model.ae.decoder.deconv6.weight" type="Const" version="opset1">
			<data element_type="f32" shape="64, 64, 4, 4" offset="3089080" size="262144" />
			<output>
				<port id="0" precision="FP32" names="model.ae.decoder.deconv6.weight">
					<dim>64</dim>
					<dim>64</dim>
					<dim>4</dim>
					<dim>4</dim>
				</port>
			</output>
		</layer>
		<layer id="194" name="/model/ae/decoder/deconv6/Conv/WithoutBiases" type="Convolution" version="opset1">
			<data strides="1, 1" dilations="1, 1" pads_begin="2, 2" pads_end="2, 2" auto_pad="explicit" />
			<input>
				<port id="0" precision="FP32">
					<dim>-1</dim>
					<dim>64</dim>
					<dim>127</dim>
					<dim>127</dim>
				</port>
				<port id="1" precision="FP32">
					<dim>64</dim>
					<dim>64</dim>
					<dim>4</dim>
					<dim>4</dim>
				</port>
			</input>
			<output>
				<port id="2" precision="FP32">
					<dim>-1</dim>
					<dim>64</dim>
					<dim>128</dim>
					<dim>128</dim>
				</port>
			</output>
		</layer>
		<layer id="195" name="Reshape_1284" type="Const" version="opset1">
			<data element_type="f32" shape="1, 64, 1, 1" offset="3351224" size="256" />
			<output>
				<port id="0" precision="FP32">
					<dim>1</dim>
					<dim>64</dim>
					<dim>1</dim>
					<dim>1</dim>
				</port>
			</output>
		</layer>
		<layer id="196" name="/model/ae/decoder/deconv6/Conv" type="Add" version="opset1">
			<data auto_broadcast="numpy" />
			<input>
				<port id="0" precision="FP32">
					<dim>-1</dim>
					<dim>64</dim>
					<dim>128</dim>
					<dim>128</dim>
				</port>
				<port id="1" precision="FP32">
					<dim>1</dim>
					<dim>64</dim>
					<dim>1</dim>
					<dim>1</dim>
				</port>
			</input>
			<output>
				<port id="2" precision="FP32" names="/model/ae/decoder/deconv6/Conv_output_0">
					<dim>-1</dim>
					<dim>64</dim>
					<dim>128</dim>
					<dim>128</dim>
				</port>
			</output>
		</layer>
		<layer id="197" name="/model/ae/decoder/Relu_5" type="ReLU" version="opset1">
			<input>
				<port id="0" precision="FP32">
					<dim>-1</dim>
					<dim>64</dim>
					<dim>128</dim>
					<dim>128</dim>
				</port>
			</input>
			<output>
				<port id="1" precision="FP32" names="/model/ae/decoder/Relu_5_output_0">
					<dim>-1</dim>
					<dim>64</dim>
					<dim>128</dim>
					<dim>128</dim>
				</port>
			</output>
		</layer>
		<layer id="198" name="/model/ae/decoder/Shape_6" type="ShapeOf" version="opset3">
			<data output_type="i64" />
			<input>
				<port id="0" precision="FP32">
					<dim>-1</dim>
					<dim>64</dim>
					<dim>128</dim>
					<dim>128</dim>
				</port>
			</input>
			<output>
				<port id="1" precision="I64" names="/model/ae/decoder/Shape_6_output_0">
					<dim>4</dim>
				</port>
			</output>
		</layer>
		<layer id="199" name="/model/ae/decoder/Constant_39" type="Const" version="opset1">
			<data element_type="i64" shape="1" offset="32" size="8" />
			<output>
				<port id="0" precision="I64" names="/model/ae/decoder/Constant_39_output_0">
					<dim>1</dim>
				</port>
			</output>
		</layer>
		<layer id="200" name="/model/ae/decoder/Constant_40" type="Const" version="opset1">
			<data element_type="i64" shape="1" offset="40" size="8" />
			<output>
				<port id="0" precision="I64" names="/model/ae/decoder/Constant_40_output_0">
					<dim>1</dim>
				</port>
			</output>
		</layer>
		<layer id="201" name="Broadcast_1295" type="Const" version="opset1">
			<data element_type="i64" shape="1" offset="48" size="8" />
			<output>
				<port id="0" precision="I64">
					<dim>1</dim>
				</port>
			</output>
		</layer>
		<layer id="202" name="/model/ae/decoder/Constant_38" type="Const" version="opset1">
			<data element_type="i64" shape="1" offset="32" size="8" />
			<output>
				<port id="0" precision="I64" names="/model/ae/decoder/Constant_38_output_0">
					<dim>1</dim>
				</port>
			</output>
		</layer>
		<layer id="203" name="/model/ae/decoder/Slice_6" type="Slice" version="opset8">
			<input>
				<port id="0" precision="I64">
					<dim>4</dim>
				</port>
				<port id="1" precision="I64">
					<dim>1</dim>
				</port>
				<port id="2" precision="I64">
					<dim>1</dim>
				</port>
				<port id="3" precision="I64">
					<dim>1</dim>
				</port>
				<port id="4" precision="I64">
					<dim>1</dim>
				</port>
			</input>
			<output>
				<port id="5" precision="I64" names="/model/ae/decoder/Slice_6_output_0">
					<dim>2</dim>
				</port>
			</output>
		</layer>
		<layer id="204" name="/model/ae/decoder/Constant_41" type="Const" version="opset1">
			<data element_type="i64" shape="2" offset="3351480" size="16" />
			<output>
				<port id="0" precision="I64" names="/model/ae/decoder/Constant_41_output_0">
					<dim>2</dim>
				</port>
			</output>
		</layer>
		<layer id="205" name="/model/ae/decoder/Concat_12" type="Concat" version="opset1">
			<data axis="0" />
			<input>
				<port id="0" precision="I64">
					<dim>2</dim>
				</port>
				<port id="1" precision="I64">
					<dim>2</dim>
				</port>
			</input>
			<output>
				<port id="2" precision="I64" names="/model/ae/decoder/Concat_12_output_0">
					<dim>4</dim>
				</port>
			</output>
		</layer>
		<layer id="206" name="/model/ae/decoder/Resize_6" type="Interpolate" version="opset11">
			<data mode="linear_onnx" shape_calculation_mode="sizes" coordinate_transformation_mode="half_pixel" nearest_mode="floor" antialias="false" pads_begin="0, 0, 0, 0" pads_end="0, 0, 0, 0" cube_coeff="-0.75" />
			<input>
				<port id="0" precision="FP32">
					<dim>-1</dim>
					<dim>64</dim>
					<dim>128</dim>
					<dim>128</dim>
				</port>
				<port id="1" precision="I64">
					<dim>4</dim>
				</port>
			</input>
			<output>
				<port id="2" precision="FP32" names="/model/ae/decoder/Resize_6_output_0">
					<dim>-1</dim>
					<dim>64</dim>
					<dim>56</dim>
					<dim>56</dim>
				</port>
			</output>
		</layer>
		<layer id="207" name="model.ae.decoder.deconv7.weight" type="Const" version="opset1">
			<data element_type="f32" shape="64, 64, 3, 3" offset="3351496" size="147456" />
			<output>
				<port id="0" precision="FP32" names="model.ae.decoder.deconv7.weight">
					<dim>64</dim>
					<dim>64</dim>
					<dim>3</dim>
					<dim>3</dim>
				</port>
			</output>
		</layer>
		<layer id="208" name="/model/ae/decoder/deconv7/Conv/WithoutBiases" type="Convolution" version="opset1">
			<data strides="1, 1" dilations="1, 1" pads_begin="1, 1" pads_end="1, 1" auto_pad="explicit" />
			<input>
				<port id="0" precision="FP32">
					<dim>-1</dim>
					<dim>64</dim>
					<dim>56</dim>
					<dim>56</dim>
				</port>
				<port id="1" precision="FP32">
					<dim>64</dim>
					<dim>64</dim>
					<dim>3</dim>
					<dim>3</dim>
				</port>
			</input>
			<output>
				<port id="2" precision="FP32">
					<dim>-1</dim>
					<dim>64</dim>
					<dim>56</dim>
					<dim>56</dim>
				</port>
			</output>
		</layer>
		<layer id="209" name="Reshape_1323" type="Const" version="opset1">
			<data element_type="f32" shape="1, 64, 1, 1" offset="3498952" size="256" />
			<output>
				<port id="0" precision="FP32">
					<dim>1</dim>
					<dim>64</dim>
					<dim>1</dim>
					<dim>1</dim>
				</port>
			</output>
		</layer>
		<layer id="210" name="/model/ae/decoder/deconv7/Conv" type="Add" version="opset1">
			<data auto_broadcast="numpy" />
			<input>
				<port id="0" precision="FP32">
					<dim>-1</dim>
					<dim>64</dim>
					<dim>56</dim>
					<dim>56</dim>
				</port>
				<port id="1" precision="FP32">
					<dim>1</dim>
					<dim>64</dim>
					<dim>1</dim>
					<dim>1</dim>
				</port>
			</input>
			<output>
				<port id="2" precision="FP32" names="/model/ae/decoder/deconv7/Conv_output_0">
					<dim>-1</dim>
					<dim>64</dim>
					<dim>56</dim>
					<dim>56</dim>
				</port>
			</output>
		</layer>
		<layer id="211" name="/model/ae/decoder/Relu_6" type="ReLU" version="opset1">
			<input>
				<port id="0" precision="FP32">
					<dim>-1</dim>
					<dim>64</dim>
					<dim>56</dim>
					<dim>56</dim>
				</port>
			</input>
			<output>
				<port id="1" precision="FP32" names="/model/ae/decoder/Relu_6_output_0">
					<dim>-1</dim>
					<dim>64</dim>
					<dim>56</dim>
					<dim>56</dim>
				</port>
			</output>
		</layer>
		<layer id="212" name="model.ae.decoder.deconv8.weight" type="Const" version="opset1">
			<data element_type="f32" shape="384, 64, 3, 3" offset="3499208" size="884736" />
			<output>
				<port id="0" precision="FP32" names="model.ae.decoder.deconv8.weight">
					<dim>384</dim>
					<dim>64</dim>
					<dim>3</dim>
					<dim>3</dim>
				</port>
			</output>
		</layer>
		<layer id="213" name="/model/ae/decoder/deconv8/Conv/WithoutBiases" type="Convolution" version="opset1">
			<data strides="1, 1" dilations="1, 1" pads_begin="1, 1" pads_end="1, 1" auto_pad="explicit" />
			<input>
				<port id="0" precision="FP32">
					<dim>-1</dim>
					<dim>64</dim>
					<dim>56</dim>
					<dim>56</dim>
				</port>
				<port id="1" precision="FP32">
					<dim>384</dim>
					<dim>64</dim>
					<dim>3</dim>
					<dim>3</dim>
				</port>
			</input>
			<output>
				<port id="2" precision="FP32">
					<dim>-1</dim>
					<dim>384</dim>
					<dim>56</dim>
					<dim>56</dim>
				</port>
			</output>
		</layer>
		<layer id="214" name="Reshape_1340" type="Const" version="opset1">
			<data element_type="f32" shape="1, 384, 1, 1" offset="4383944" size="1536" />
			<output>
				<port id="0" precision="FP32">
					<dim>1</dim>
					<dim>384</dim>
					<dim>1</dim>
					<dim>1</dim>
				</port>
			</output>
		</layer>
		<layer id="215" name="/model/ae/decoder/deconv8/Conv" type="Add" version="opset1">
			<data auto_broadcast="numpy" />
			<input>
				<port id="0" precision="FP32">
					<dim>-1</dim>
					<dim>384</dim>
					<dim>56</dim>
					<dim>56</dim>
				</port>
				<port id="1" precision="FP32">
					<dim>1</dim>
					<dim>384</dim>
					<dim>1</dim>
					<dim>1</dim>
				</port>
			</input>
			<output>
				<port id="2" precision="FP32" names="/model/ae/decoder/deconv8/Conv_output_0">
					<dim>-1</dim>
					<dim>384</dim>
					<dim>56</dim>
					<dim>56</dim>
				</port>
			</output>
		</layer>
		<layer id="216" name="model.student.conv1.weight" type="Const" version="opset1">
			<data element_type="f32" shape="128, 3, 4, 4" offset="4385480" size="24576" />
			<output>
				<port id="0" precision="FP32" names="model.student.conv1.weight">
					<dim>128</dim>
					<dim>3</dim>
					<dim>4</dim>
					<dim>4</dim>
				</port>
			</output>
		</layer>
		<layer id="217" name="/model/student/conv1/Conv/WithoutBiases" type="Convolution" version="opset1">
			<data strides="1, 1" dilations="1, 1" pads_begin="0, 0" pads_end="0, 0" auto_pad="explicit" />
			<input>
				<port id="0" precision="FP32">
					<dim>-1</dim>
					<dim>3</dim>
					<dim>256</dim>
					<dim>256</dim>
				</port>
				<port id="1" precision="FP32">
					<dim>128</dim>
					<dim>3</dim>
					<dim>4</dim>
					<dim>4</dim>
				</port>
			</input>
			<output>
				<port id="2" precision="FP32">
					<dim>-1</dim>
					<dim>128</dim>
					<dim>253</dim>
					<dim>253</dim>
				</port>
			</output>
		</layer>
		<layer id="218" name="Reshape_207" type="Const" version="opset1">
			<data element_type="f32" shape="1, 128, 1, 1" offset="4410056" size="512" />
			<output>
				<port id="0" precision="FP32">
					<dim>1</dim>
					<dim>128</dim>
					<dim>1</dim>
					<dim>1</dim>
				</port>
			</output>
		</layer>
		<layer id="219" name="/model/student/conv1/Conv" type="Add" version="opset1">
			<data auto_broadcast="numpy" />
			<input>
				<port id="0" precision="FP32">
					<dim>-1</dim>
					<dim>128</dim>
					<dim>253</dim>
					<dim>253</dim>
				</port>
				<port id="1" precision="FP32">
					<dim>1</dim>
					<dim>128</dim>
					<dim>1</dim>
					<dim>1</dim>
				</port>
			</input>
			<output>
				<port id="2" precision="FP32" names="/model/student/conv1/Conv_output_0">
					<dim>-1</dim>
					<dim>128</dim>
					<dim>253</dim>
					<dim>253</dim>
				</port>
			</output>
		</layer>
		<layer id="220" name="/model/student/Relu" type="ReLU" version="opset1">
			<input>
				<port id="0" precision="FP32">
					<dim>-1</dim>
					<dim>128</dim>
					<dim>253</dim>
					<dim>253</dim>
				</port>
			</input>
			<output>
				<port id="1" precision="FP32" names="/model/student/Relu_output_0">
					<dim>-1</dim>
					<dim>128</dim>
					<dim>253</dim>
					<dim>253</dim>
				</port>
			</output>
		</layer>
		<layer id="221" name="/model/student/avgpool1/AveragePool" type="AvgPool" version="opset1">
			<data kernel="2, 2" strides="2, 2" pads_begin="0, 0" pads_end="0, 0" exclude-pad="false" auto_pad="explicit" rounding_type="floor" />
			<input>
				<port id="0" precision="FP32">
					<dim>-1</dim>
					<dim>128</dim>
					<dim>253</dim>
					<dim>253</dim>
				</port>
			</input>
			<output>
				<port id="1" precision="FP32" names="/model/student/avgpool1/AveragePool_output_0">
					<dim>-1</dim>
					<dim>128</dim>
					<dim>126</dim>
					<dim>126</dim>
				</port>
			</output>
		</layer>
		<layer id="222" name="model.student.conv2.weight" type="Const" version="opset1">
			<data element_type="f32" shape="256, 128, 4, 4" offset="4410568" size="2097152" />
			<output>
				<port id="0" precision="FP32" names="model.student.conv2.weight">
					<dim>256</dim>
					<dim>128</dim>
					<dim>4</dim>
					<dim>4</dim>
				</port>
			</output>
		</layer>
		<layer id="223" name="/model/student/conv2/Conv/WithoutBiases" type="Convolution" version="opset1">
			<data strides="1, 1" dilations="1, 1" pads_begin="0, 0" pads_end="0, 0" auto_pad="explicit" />
			<input>
				<port id="0" precision="FP32">
					<dim>-1</dim>
					<dim>128</dim>
					<dim>126</dim>
					<dim>126</dim>
				</port>
				<port id="1" precision="FP32">
					<dim>256</dim>
					<dim>128</dim>
					<dim>4</dim>
					<dim>4</dim>
				</port>
			</input>
			<output>
				<port id="2" precision="FP32">
					<dim>-1</dim>
					<dim>256</dim>
					<dim>123</dim>
					<dim>123</dim>
				</port>
			</output>
		</layer>
		<layer id="224" name="Reshape_225" type="Const" version="opset1">
			<data element_type="f32" shape="1, 256, 1, 1" offset="6507720" size="1024" />
			<output>
				<port id="0" precision="FP32">
					<dim>1</dim>
					<dim>256</dim>
					<dim>1</dim>
					<dim>1</dim>
				</port>
			</output>
		</layer>
		<layer id="225" name="/model/student/conv2/Conv" type="Add" version="opset1">
			<data auto_broadcast="numpy" />
			<input>
				<port id="0" precision="FP32">
					<dim>-1</dim>
					<dim>256</dim>
					<dim>123</dim>
					<dim>123</dim>
				</port>
				<port id="1" precision="FP32">
					<dim>1</dim>
					<dim>256</dim>
					<dim>1</dim>
					<dim>1</dim>
				</port>
			</input>
			<output>
				<port id="2" precision="FP32" names="/model/student/conv2/Conv_output_0">
					<dim>-1</dim>
					<dim>256</dim>
					<dim>123</dim>
					<dim>123</dim>
				</port>
			</output>
		</layer>
		<layer id="226" name="/model/student/Relu_1" type="ReLU" version="opset1">
			<input>
				<port id="0" precision="FP32">
					<dim>-1</dim>
					<dim>256</dim>
					<dim>123</dim>
					<dim>123</dim>
				</port>
			</input>
			<output>
				<port id="1" precision="FP32" names="/model/student/Relu_1_output_0">
					<dim>-1</dim>
					<dim>256</dim>
					<dim>123</dim>
					<dim>123</dim>
				</port>
			</output>
		</layer>
		<layer id="227" name="/model/student/avgpool2/AveragePool" type="AvgPool" version="opset1">
			<data kernel="2, 2" strides="2, 2" pads_begin="0, 0" pads_end="0, 0" exclude-pad="false" auto_pad="explicit" rounding_type="floor" />
			<input>
				<port id="0" precision="FP32">
					<dim>-1</dim>
					<dim>256</dim>
					<dim>123</dim>
					<dim>123</dim>
				</port>
			</input>
			<output>
				<port id="1" precision="FP32" names="/model/student/avgpool2/AveragePool_output_0">
					<dim>-1</dim>
					<dim>256</dim>
					<dim>61</dim>
					<dim>61</dim>
				</port>
			</output>
		</layer>
		<layer id="228" name="model.student.conv3.weight" type="Const" version="opset1">
			<data element_type="f32" shape="256, 256, 3, 3" offset="6508744" size="2359296" />
			<output>
				<port id="0" precision="FP32" names="model.student.conv3.weight">
					<dim>256</dim>
					<dim>256</dim>
					<dim>3</dim>
					<dim>3</dim>
				</port>
			</output>
		</layer>
		<layer id="229" name="/model/student/conv3/Conv/WithoutBiases" type="Convolution" version="opset1">
			<data strides="1, 1" dilations="1, 1" pads_begin="0, 0" pads_end="0, 0" auto_pad="explicit" />
			<input>
				<port id="0" precision="FP32">
					<dim>-1</dim>
					<dim>256</dim>
					<dim>61</dim>
					<dim>61</dim>
				</port>
				<port id="1" precision="FP32">
					<dim>256</dim>
					<dim>256</dim>
					<dim>3</dim>
					<dim>3</dim>
				</port>
			</input>
			<output>
				<port id="2" precision="FP32">
					<dim>-1</dim>
					<dim>256</dim>
					<dim>59</dim>
					<dim>59</dim>
				</port>
			</output>
		</layer>
		<layer id="230" name="Reshape_243" type="Const" version="opset1">
			<data element_type="f32" shape="1, 256, 1, 1" offset="8868040" size="1024" />
			<output>
				<port id="0" precision="FP32">
					<dim>1</dim>
					<dim>256</dim>
					<dim>1</dim>
					<dim>1</dim>
				</port>
			</output>
		</layer>
		<layer id="231" name="/model/student/conv3/Conv" type="Add" version="opset1">
			<data auto_broadcast="numpy" />
			<input>
				<port id="0" precision="FP32">
					<dim>-1</dim>
					<dim>256</dim>
					<dim>59</dim>
					<dim>59</dim>
				</port>
				<port id="1" precision="FP32">
					<dim>1</dim>
					<dim>256</dim>
					<dim>1</dim>
					<dim>1</dim>
				</port>
			</input>
			<output>
				<port id="2" precision="FP32" names="/model/student/conv3/Conv_output_0">
					<dim>-1</dim>
					<dim>256</dim>
					<dim>59</dim>
					<dim>59</dim>
				</port>
			</output>
		</layer>
		<layer id="232" name="/model/student/Relu_2" type="ReLU" version="opset1">
			<input>
				<port id="0" precision="FP32">
					<dim>-1</dim>
					<dim>256</dim>
					<dim>59</dim>
					<dim>59</dim>
				</port>
			</input>
			<output>
				<port id="1" precision="FP32" names="/model/student/Relu_2_output_0">
					<dim>-1</dim>
					<dim>256</dim>
					<dim>59</dim>
					<dim>59</dim>
				</port>
			</output>
		</layer>
		<layer id="233" name="model.student.conv4.weight" type="Const" version="opset1">
			<data element_type="f32" shape="768, 256, 4, 4" offset="8869064" size="12582912" />
			<output>
				<port id="0" precision="FP32" names="model.student.conv4.weight">
					<dim>768</dim>
					<dim>256</dim>
					<dim>4</dim>
					<dim>4</dim>
				</port>
			</output>
		</layer>
		<layer id="234" name="/model/student/conv4/Conv/WithoutBiases" type="Convolution" version="opset1">
			<data strides="1, 1" dilations="1, 1" pads_begin="0, 0" pads_end="0, 0" auto_pad="explicit" />
			<input>
				<port id="0" precision="FP32">
					<dim>-1</dim>
					<dim>256</dim>
					<dim>59</dim>
					<dim>59</dim>
				</port>
				<port id="1" precision="FP32">
					<dim>768</dim>
					<dim>256</dim>
					<dim>4</dim>
					<dim>4</dim>
				</port>
			</input>
			<output>
				<port id="2" precision="FP32">
					<dim>-1</dim>
					<dim>768</dim>
					<dim>56</dim>
					<dim>56</dim>
				</port>
			</output>
		</layer>
		<layer id="235" name="Reshape_260" type="Const" version="opset1">
			<data element_type="f32" shape="1, 768, 1, 1" offset="21451976" size="3072" />
			<output>
				<port id="0" precision="FP32">
					<dim>1</dim>
					<dim>768</dim>
					<dim>1</dim>
					<dim>1</dim>
				</port>
			</output>
		</layer>
		<layer id="236" name="/model/student/conv4/Conv" type="Add" version="opset1">
			<data auto_broadcast="numpy" />
			<input>
				<port id="0" precision="FP32">
					<dim>-1</dim>
					<dim>768</dim>
					<dim>56</dim>
					<dim>56</dim>
				</port>
				<port id="1" precision="FP32">
					<dim>1</dim>
					<dim>768</dim>
					<dim>1</dim>
					<dim>1</dim>
				</port>
			</input>
			<output>
				<port id="2" precision="FP32" names="/model/student/conv4/Conv_output_0">
					<dim>-1</dim>
					<dim>768</dim>
					<dim>56</dim>
					<dim>56</dim>
				</port>
			</output>
		</layer>
		<layer id="237" name="/model/Constant_8" type="Const" version="opset1">
			<data element_type="i64" shape="1" offset="21455048" size="8" />
			<output>
				<port id="0" precision="I64" names="/model/Constant_8_output_0">
					<dim>1</dim>
				</port>
			</output>
		</layer>
		<layer id="238" name="/model/Constant_9" type="Const" version="opset1">
			<data element_type="i64" shape="1" offset="21455056" size="8" />
			<output>
				<port id="0" precision="I64" names="/model/Constant_9_output_0">
					<dim>1</dim>
				</port>
			</output>
		</layer>
		<layer id="239" name="/model/Constant_10" type="Const" version="opset1">
			<data element_type="i64" shape="1" offset="48" size="8" />
			<output>
				<port id="0" precision="I64" names="/model/Constant_10_output_0">
					<dim>1</dim>
				</port>
			</output>
		</layer>
		<layer id="240" name="/model/Constant_7" type="Const" version="opset1">
			<data element_type="i64" shape="1" offset="48" size="8" />
			<output>
				<port id="0" precision="I64" names="/model/Constant_7_output_0">
					<dim>1</dim>
				</port>
			</output>
		</layer>
		<layer id="241" name="/model/Slice_1" type="Slice" version="opset8">
			<input>
				<port id="0" precision="FP32">
					<dim>-1</dim>
					<dim>768</dim>
					<dim>56</dim>
					<dim>56</dim>
				</port>
				<port id="1" precision="I64">
					<dim>1</dim>
				</port>
				<port id="2" precision="I64">
					<dim>1</dim>
				</port>
				<port id="3" precision="I64">
					<dim>1</dim>
				</port>
				<port id="4" precision="I64">
					<dim>1</dim>
				</port>
			</input>
			<output>
				<port id="5" precision="FP32" names="/model/Slice_1_output_0">
					<dim>-1</dim>
					<dim>384</dim>
					<dim>56</dim>
					<dim>56</dim>
				</port>
			</output>
		</layer>
		<layer id="242" name="/model/Sub_2" type="Subtract" version="opset1">
			<data auto_broadcast="numpy" />
			<input>
				<port id="0" precision="FP32">
					<dim>-1</dim>
					<dim>384</dim>
					<dim>56</dim>
					<dim>56</dim>
				</port>
				<port id="1" precision="FP32">
					<dim>-1</dim>
					<dim>384</dim>
					<dim>56</dim>
					<dim>56</dim>
				</port>
			</input>
			<output>
				<port id="2" precision="FP32" names="/model/Sub_2_output_0">
					<dim>-1</dim>
					<dim>384</dim>
					<dim>56</dim>
					<dim>56</dim>
				</port>
			</output>
		</layer>
		<layer id="243" name="Constant_9081" type="Const" version="opset1">
			<data element_type="f32" shape="1, 1, 1, 1" offset="21455064" size="4" />
			<output>
				<port id="0" precision="FP32">
					<dim>1</dim>
					<dim>1</dim>
					<dim>1</dim>
					<dim>1</dim>
				</port>
			</output>
		</layer>
		<layer id="244" name="/model/Pow_1" type="Power" version="opset1">
			<data auto_broadcast="numpy" />
			<input>
				<port id="0" precision="FP32">
					<dim>-1</dim>
					<dim>384</dim>
					<dim>56</dim>
					<dim>56</dim>
				</port>
				<port id="1" precision="FP32">
					<dim>1</dim>
					<dim>1</dim>
					<dim>1</dim>
					<dim>1</dim>
				</port>
			</input>
			<output>
				<port id="2" precision="FP32" names="/model/Pow_1_output_0">
					<dim>-1</dim>
					<dim>384</dim>
					<dim>56</dim>
					<dim>56</dim>
				</port>
			</output>
		</layer>
		<layer id="245" name="Constant_1354" type="Const" version="opset1">
			<data element_type="i64" shape="1" offset="48" size="8" />
			<output>
				<port id="0" precision="I64">
					<dim>1</dim>
				</port>
			</output>
		</layer>
		<layer id="246" name="/model/ReduceMean_1" type="ReduceMean" version="opset1">
			<data keep_dims="true" />
			<input>
				<port id="0" precision="FP32">
					<dim>-1</dim>
					<dim>384</dim>
					<dim>56</dim>
					<dim>56</dim>
				</port>
				<port id="1" precision="I64">
					<dim>1</dim>
				</port>
			</input>
			<output>
				<port id="2" precision="FP32" names="/model/ReduceMean_1_output_0">
					<dim>-1</dim>
					<dim>1</dim>
					<dim>56</dim>
					<dim>56</dim>
				</port>
			</output>
		</layer>
		<layer id="247" name="Split_1404.0" type="Const" version="opset1">
			<data element_type="i64" shape="4" offset="21455068" size="32" />
			<output>
				<port id="0" precision="I64">
					<dim>4</dim>
				</port>
			</output>
		</layer>
		<layer id="248" name="Split_1404.1" type="Const" version="opset1">
			<data element_type="i64" shape="4" offset="21455068" size="32" />
			<output>
				<port id="0" precision="I64">
					<dim>4</dim>
				</port>
			</output>
		</layer>
		<layer id="249" name="Constant_1402" type="Const" version="opset1">
			<data element_type="f32" shape="" offset="21455100" size="4" />
			<output>
				<port id="0" precision="FP32" />
			</output>
		</layer>
		<layer id="250" name="/model/Pad_1" type="Pad" version="opset12">
			<data pad_mode="constant" />
			<input>
				<port id="0" precision="FP32">
					<dim>-1</dim>
					<dim>1</dim>
					<dim>56</dim>
					<dim>56</dim>
				</port>
				<port id="1" precision="I64">
					<dim>4</dim>
				</port>
				<port id="2" precision="I64">
					<dim>4</dim>
				</port>
				<port id="3" precision="FP32" />
			</input>
			<output>
				<port id="4" precision="FP32" names="/model/Pad_1_output_0">
					<dim>-1</dim>
					<dim>1</dim>
					<dim>64</dim>
					<dim>64</dim>
				</port>
			</output>
		</layer>
		<layer id="251" name="/model/Shape_3" type="ShapeOf" version="opset3">
			<data output_type="i64" />
			<input>
				<port id="0" precision="FP32">
					<dim>-1</dim>
					<dim>1</dim>
					<dim>64</dim>
					<dim>64</dim>
				</port>
			</input>
			<output>
				<port id="1" precision="I64" names="/model/Shape_3_output_0">
					<dim>4</dim>
				</port>
			</output>
		</layer>
		<layer id="252" name="/model/Constant_32" type="Const" version="opset1">
			<data element_type="i64" shape="1" offset="32" size="8" />
			<output>
				<port id="0" precision="I64" names="/model/Constant_32_output_0">
					<dim>1</dim>
				</port>
			</output>
		</layer>
		<layer id="253" name="/model/Constant_33" type="Const" version="opset1">
			<data element_type="i64" shape="1" offset="40" size="8" />
			<output>
				<port id="0" precision="I64" names="/model/Constant_33_output_0">
					<dim>1</dim>
				</port>
			</output>
		</layer>
		<layer id="254" name="Broadcast_1454" type="Const" version="opset1">
			<data element_type="i64" shape="1" offset="48" size="8" />
			<output>
				<port id="0" precision="I64">
					<dim>1</dim>
				</port>
			</output>
		</layer>
		<layer id="255" name="/model/Constant_31" type="Const" version="opset1">
			<data element_type="i64" shape="1" offset="32" size="8" />
			<output>
				<port id="0" precision="I64" names="/model/Constant_31_output_0">
					<dim>1</dim>
				</port>
			</output>
		</layer>
		<layer id="256" name="/model/Slice_5" type="Slice" version="opset8">
			<input>
				<port id="0" precision="I64">
					<dim>4</dim>
				</port>
				<port id="1" precision="I64">
					<dim>1</dim>
				</port>
				<port id="2" precision="I64">
					<dim>1</dim>
				</port>
				<port id="3" precision="I64">
					<dim>1</dim>
				</port>
				<port id="4" precision="I64">
					<dim>1</dim>
				</port>
			</input>
			<output>
				<port id="5" precision="I64" names="/model/Slice_5_output_0">
					<dim>2</dim>
				</port>
			</output>
		</layer>
		<layer id="257" name="/model/Concat_2" type="Concat" version="opset1">
			<data axis="0" />
			<input>
				<port id="0" precision="I64">
					<dim>1</dim>
				</port>
				<port id="1" precision="I64">
					<dim>1</dim>
				</port>
			</input>
			<output>
				<port id="2" precision="I64" names="/model/Cast_2_output_0,/model/Cast_3_output_0,/model/Concat_2_output_0,/model/Concat_3_output_0">
					<dim>2</dim>
				</port>
			</output>
		</layer>
		<layer id="258" name="/model/Concat_5" type="Concat" version="opset1">
			<data axis="0" />
			<input>
				<port id="0" precision="I64">
					<dim>2</dim>
				</port>
				<port id="1" precision="I64">
					<dim>2</dim>
				</port>
			</input>
			<output>
				<port id="2" precision="I64" names="/model/Concat_5_output_0">
					<dim>4</dim>
				</port>
			</output>
		</layer>
		<layer id="259" name="/model/Resize_1" type="Interpolate" version="opset11">
			<data mode="linear_onnx" shape_calculation_mode="sizes" coordinate_transformation_mode="half_pixel" nearest_mode="floor" antialias="false" pads_begin="0, 0, 0, 0" pads_end="0, 0, 0, 0" cube_coeff="-0.75" />
			<input>
				<port id="0" precision="FP32">
					<dim>-1</dim>
					<dim>1</dim>
					<dim>64</dim>
					<dim>64</dim>
				</port>
				<port id="1" precision="I64">
					<dim>4</dim>
				</port>
			</input>
			<output>
				<port id="2" precision="FP32" names="/model/Resize_1_output_0">
					<dim>-1</dim>
					<dim>1</dim>
					<dim>256</dim>
					<dim>256</dim>
				</port>
			</output>
		</layer>
		<layer id="260" name="Constant_9082" type="Const" version="opset1">
			<data element_type="f32" shape="1, 1, 1, 1" offset="21455104" size="4" />
			<output>
				<port id="0" precision="FP32">
					<dim>1</dim>
					<dim>1</dim>
					<dim>1</dim>
					<dim>1</dim>
				</port>
			</output>
		</layer>
		<layer id="261" name="Multiply_8954" type="Multiply" version="opset1">
			<data auto_broadcast="numpy" />
			<input>
				<port id="0" precision="FP32">
					<dim>-1</dim>
					<dim>1</dim>
					<dim>256</dim>
					<dim>256</dim>
				</port>
				<port id="1" precision="FP32">
					<dim>1</dim>
					<dim>1</dim>
					<dim>1</dim>
					<dim>1</dim>
				</port>
			</input>
			<output>
				<port id="2" precision="FP32">
					<dim>-1</dim>
					<dim>1</dim>
					<dim>256</dim>
					<dim>256</dim>
				</port>
			</output>
		</layer>
		<layer id="262" name="Constant_9083" type="Const" version="opset1">
			<data element_type="f32" shape="1, 1, 1, 1" offset="21455108" size="4" />
			<output>
				<port id="0" precision="FP32">
					<dim>1</dim>
					<dim>1</dim>
					<dim>1</dim>
					<dim>1</dim>
				</port>
			</output>
		</layer>
		<layer id="263" name="onnx::Mul_432" type="Add" version="opset1">
			<data auto_broadcast="numpy" />
			<input>
				<port id="0" precision="FP32">
					<dim>-1</dim>
					<dim>1</dim>
					<dim>256</dim>
					<dim>256</dim>
				</port>
				<port id="1" precision="FP32">
					<dim>1</dim>
					<dim>1</dim>
					<dim>1</dim>
					<dim>1</dim>
				</port>
			</input>
			<output>
				<port id="2" precision="FP32" names="onnx::Mul_432">
					<dim>-1</dim>
					<dim>1</dim>
					<dim>256</dim>
					<dim>256</dim>
				</port>
			</output>
		</layer>
		<layer id="265" name="model.teacher.conv1.weight" type="Const" version="opset1">
			<data element_type="f32" shape="128, 3, 4, 4" offset="21455112" size="24576" />
			<output>
				<port id="0" precision="FP32" names="model.teacher.conv1.weight">
					<dim>128</dim>
					<dim>3</dim>
					<dim>4</dim>
					<dim>4</dim>
				</port>
			</output>
		</layer>
		<layer id="266" name="/model/teacher/conv1/Conv/WithoutBiases" type="Convolution" version="opset1">
			<data strides="1, 1" dilations="1, 1" pads_begin="0, 0" pads_end="0, 0" auto_pad="explicit" />
			<input>
				<port id="0" precision="FP32">
					<dim>-1</dim>
					<dim>3</dim>
					<dim>256</dim>
					<dim>256</dim>
				</port>
				<port id="1" precision="FP32">
					<dim>128</dim>
					<dim>3</dim>
					<dim>4</dim>
					<dim>4</dim>
				</port>
			</input>
			<output>
				<port id="2" precision="FP32">
					<dim>-1</dim>
					<dim>128</dim>
					<dim>253</dim>
					<dim>253</dim>
				</port>
			</output>
		</layer>
		<layer id="267" name="Reshape_136" type="Const" version="opset1">
			<data element_type="f32" shape="1, 128, 1, 1" offset="21479688" size="512" />
			<output>
				<port id="0" precision="FP32">
					<dim>1</dim>
					<dim>128</dim>
					<dim>1</dim>
					<dim>1</dim>
				</port>
			</output>
		</layer>
		<layer id="268" name="/model/teacher/conv1/Conv" type="Add" version="opset1">
			<data auto_broadcast="numpy" />
			<input>
				<port id="0" precision="FP32">
					<dim>-1</dim>
					<dim>128</dim>
					<dim>253</dim>
					<dim>253</dim>
				</port>
				<port id="1" precision="FP32">
					<dim>1</dim>
					<dim>128</dim>
					<dim>1</dim>
					<dim>1</dim>
				</port>
			</input>
			<output>
				<port id="2" precision="FP32" names="/model/teacher/conv1/Conv_output_0">
					<dim>-1</dim>
					<dim>128</dim>
					<dim>253</dim>
					<dim>253</dim>
				</port>
			</output>
		</layer>
		<layer id="269" name="/model/teacher/Relu" type="ReLU" version="opset1">
			<input>
				<port id="0" precision="FP32">
					<dim>-1</dim>
					<dim>128</dim>
					<dim>253</dim>
					<dim>253</dim>
				</port>
			</input>
			<output>
				<port id="1" precision="FP32" names="/model/teacher/Relu_output_0">
					<dim>-1</dim>
					<dim>128</dim>
					<dim>253</dim>
					<dim>253</dim>
				</port>
			</output>
		</layer>
		<layer id="270" name="/model/teacher/avgpool1/AveragePool" type="AvgPool" version="opset1">
			<data kernel="2, 2" strides="2, 2" pads_begin="0, 0" pads_end="0, 0" exclude-pad="false" auto_pad="explicit" rounding_type="floor" />
			<input>
				<port id="0" precision="FP32">
					<dim>-1</dim>
					<dim>128</dim>
					<dim>253</dim>
					<dim>253</dim>
				</port>
			</input>
			<output>
				<port id="1" precision="FP32" names="/model/teacher/avgpool1/AveragePool_output_0">
					<dim>-1</dim>
					<dim>128</dim>
					<dim>126</dim>
					<dim>126</dim>
				</port>
			</output>
		</layer>
		<layer id="271" name="model.teacher.conv2.weight" type="Const" version="opset1">
			<data element_type="f32" shape="256, 128, 4, 4" offset="21480200" size="2097152" />
			<output>
				<port id="0" precision="FP32" names="model.teacher.conv2.weight">
					<dim>256</dim>
					<dim>128</dim>
					<dim>4</dim>
					<dim>4</dim>
				</port>
			</output>
		</layer>
		<layer id="272" name="/model/teacher/conv2/Conv/WithoutBiases" type="Convolution" version="opset1">
			<data strides="1, 1" dilations="1, 1" pads_begin="0, 0" pads_end="0, 0" auto_pad="explicit" />
			<input>
				<port id="0" precision="FP32">
					<dim>-1</dim>
					<dim>128</dim>
					<dim>126</dim>
					<dim>126</dim>
				</port>
				<port id="1" precision="FP32">
					<dim>256</dim>
					<dim>128</dim>
					<dim>4</dim>
					<dim>4</dim>
				</port>
			</input>
			<output>
				<port id="2" precision="FP32">
					<dim>-1</dim>
					<dim>256</dim>
					<dim>123</dim>
					<dim>123</dim>
				</port>
			</output>
		</layer>
		<layer id="273" name="Reshape_154" type="Const" version="opset1">
			<data element_type="f32" shape="1, 256, 1, 1" offset="23577352" size="1024" />
			<output>
				<port id="0" precision="FP32">
					<dim>1</dim>
					<dim>256</dim>
					<dim>1</dim>
					<dim>1</dim>
				</port>
			</output>
		</layer>
		<layer id="274" name="/model/teacher/conv2/Conv" type="Add" version="opset1">
			<data auto_broadcast="numpy" />
			<input>
				<port id="0" precision="FP32">
					<dim>-1</dim>
					<dim>256</dim>
					<dim>123</dim>
					<dim>123</dim>
				</port>
				<port id="1" precision="FP32">
					<dim>1</dim>
					<dim>256</dim>
					<dim>1</dim>
					<dim>1</dim>
				</port>
			</input>
			<output>
				<port id="2" precision="FP32" names="/model/teacher/conv2/Conv_output_0">
					<dim>-1</dim>
					<dim>256</dim>
					<dim>123</dim>
					<dim>123</dim>
				</port>
			</output>
		</layer>
		<layer id="275" name="/model/teacher/Relu_1" type="ReLU" version="opset1">
			<input>
				<port id="0" precision="FP32">
					<dim>-1</dim>
					<dim>256</dim>
					<dim>123</dim>
					<dim>123</dim>
				</port>
			</input>
			<output>
				<port id="1" precision="FP32" names="/model/teacher/Relu_1_output_0">
					<dim>-1</dim>
					<dim>256</dim>
					<dim>123</dim>
					<dim>123</dim>
				</port>
			</output>
		</layer>
		<layer id="276" name="/model/teacher/avgpool2/AveragePool" type="AvgPool" version="opset1">
			<data kernel="2, 2" strides="2, 2" pads_begin="0, 0" pads_end="0, 0" exclude-pad="false" auto_pad="explicit" rounding_type="floor" />
			<input>
				<port id="0" precision="FP32">
					<dim>-1</dim>
					<dim>256</dim>
					<dim>123</dim>
					<dim>123</dim>
				</port>
			</input>
			<output>
				<port id="1" precision="FP32" names="/model/teacher/avgpool2/AveragePool_output_0">
					<dim>-1</dim>
					<dim>256</dim>
					<dim>61</dim>
					<dim>61</dim>
				</port>
			</output>
		</layer>
		<layer id="277" name="model.teacher.conv3.weight" type="Const" version="opset1">
			<data element_type="f32" shape="256, 256, 3, 3" offset="23578376" size="2359296" />
			<output>
				<port id="0" precision="FP32" names="model.teacher.conv3.weight">
					<dim>256</dim>
					<dim>256</dim>
					<dim>3</dim>
					<dim>3</dim>
				</port>
			</output>
		</layer>
		<layer id="278" name="/model/teacher/conv3/Conv/WithoutBiases" type="Convolution" version="opset1">
			<data strides="1, 1" dilations="1, 1" pads_begin="0, 0" pads_end="0, 0" auto_pad="explicit" />
			<input>
				<port id="0" precision="FP32">
					<dim>-1</dim>
					<dim>256</dim>
					<dim>61</dim>
					<dim>61</dim>
				</port>
				<port id="1" precision="FP32">
					<dim>256</dim>
					<dim>256</dim>
					<dim>3</dim>
					<dim>3</dim>
				</port>
			</input>
			<output>
				<port id="2" precision="FP32">
					<dim>-1</dim>
					<dim>256</dim>
					<dim>59</dim>
					<dim>59</dim>
				</port>
			</output>
		</layer>
		<layer id="279" name="Reshape_172" type="Const" version="opset1">
			<data element_type="f32" shape="1, 256, 1, 1" offset="25937672" size="1024" />
			<output>
				<port id="0" precision="FP32">
					<dim>1</dim>
					<dim>256</dim>
					<dim>1</dim>
					<dim>1</dim>
				</port>
			</output>
		</layer>
		<layer id="280" name="/model/teacher/conv3/Conv" type="Add" version="opset1">
			<data auto_broadcast="numpy" />
			<input>
				<port id="0" precision="FP32">
					<dim>-1</dim>
					<dim>256</dim>
					<dim>59</dim>
					<dim>59</dim>
				</port>
				<port id="1" precision="FP32">
					<dim>1</dim>
					<dim>256</dim>
					<dim>1</dim>
					<dim>1</dim>
				</port>
			</input>
			<output>
				<port id="2" precision="FP32" names="/model/teacher/conv3/Conv_output_0">
					<dim>-1</dim>
					<dim>256</dim>
					<dim>59</dim>
					<dim>59</dim>
				</port>
			</output>
		</layer>
		<layer id="281" name="/model/teacher/Relu_2" type="ReLU" version="opset1">
			<input>
				<port id="0" precision="FP32">
					<dim>-1</dim>
					<dim>256</dim>
					<dim>59</dim>
					<dim>59</dim>
				</port>
			</input>
			<output>
				<port id="1" precision="FP32" names="/model/teacher/Relu_2_output_0">
					<dim>-1</dim>
					<dim>256</dim>
					<dim>59</dim>
					<dim>59</dim>
				</port>
			</output>
		</layer>
		<layer id="282" name="Multiply_8981" type="Const" version="opset1">
			<data element_type="f32" shape="384, 256, 4, 4" offset="25938696" size="6291456" />
			<output>
				<port id="0" precision="FP32">
					<dim>384</dim>
					<dim>256</dim>
					<dim>4</dim>
					<dim>4</dim>
				</port>
			</output>
		</layer>
		<layer id="283" name="Multiply_8964" type="Convolution" version="opset1">
			<data strides="1, 1" dilations="1, 1" pads_begin="0, 0" pads_end="0, 0" auto_pad="explicit" />
			<input>
				<port id="0" precision="FP32">
					<dim>-1</dim>
					<dim>256</dim>
					<dim>59</dim>
					<dim>59</dim>
				</port>
				<port id="1" precision="FP32">
					<dim>384</dim>
					<dim>256</dim>
					<dim>4</dim>
					<dim>4</dim>
				</port>
			</input>
			<output>
				<port id="2" precision="FP32">
					<dim>-1</dim>
					<dim>384</dim>
					<dim>56</dim>
					<dim>56</dim>
				</port>
			</output>
		</layer>
		<layer id="284" name="Constant_8966" type="Const" version="opset1">
			<data element_type="f32" shape="1, 384, 1, 1" offset="32230152" size="1536" />
			<output>
				<port id="0" precision="FP32">
					<dim>1</dim>
					<dim>384</dim>
					<dim>1</dim>
					<dim>1</dim>
				</port>
			</output>
		</layer>
		<layer id="285" name="/model/Div" type="Add" version="opset1">
			<data auto_broadcast="numpy" />
			<input>
				<port id="0" precision="FP32">
					<dim>-1</dim>
					<dim>384</dim>
					<dim>56</dim>
					<dim>56</dim>
				</port>
				<port id="1" precision="FP32">
					<dim>1</dim>
					<dim>384</dim>
					<dim>1</dim>
					<dim>1</dim>
				</port>
			</input>
			<output>
				<port id="2" precision="FP32" names="/model/Div_output_0">
					<dim>-1</dim>
					<dim>384</dim>
					<dim>56</dim>
					<dim>56</dim>
				</port>
			</output>
		</layer>
		<layer id="286" name="/model/Constant_3" type="Const" version="opset1">
			<data element_type="i64" shape="1" offset="32" size="8" />
			<output>
				<port id="0" precision="I64" names="/model/Constant_3_output_0">
					<dim>1</dim>
				</port>
			</output>
		</layer>
		<layer id="287" name="/model/Constant_4" type="Const" version="opset1">
			<data element_type="i64" shape="1" offset="21455048" size="8" />
			<output>
				<port id="0" precision="I64" names="/model/Constant_4_output_0">
					<dim>1</dim>
				</port>
			</output>
		</layer>
		<layer id="288" name="/model/Constant_5" type="Const" version="opset1">
			<data element_type="i64" shape="1" offset="48" size="8" />
			<output>
				<port id="0" precision="I64" names="/model/Constant_5_output_0">
					<dim>1</dim>
				</port>
			</output>
		</layer>
		<layer id="289" name="/model/Constant_2" type="Const" version="opset1">
			<data element_type="i64" shape="1" offset="48" size="8" />
			<output>
				<port id="0" precision="I64" names="/model/Constant_2_output_0">
					<dim>1</dim>
				</port>
			</output>
		</layer>
		<layer id="290" name="/model/Slice" type="Slice" version="opset8">
			<input>
				<port id="0" precision="FP32">
					<dim>-1</dim>
					<dim>768</dim>
					<dim>56</dim>
					<dim>56</dim>
				</port>
				<port id="1" precision="I64">
					<dim>1</dim>
				</port>
				<port id="2" precision="I64">
					<dim>1</dim>
				</port>
				<port id="3" precision="I64">
					<dim>1</dim>
				</port>
				<port id="4" precision="I64">
					<dim>1</dim>
				</port>
			</input>
			<output>
				<port id="5" precision="FP32" names="/model/Slice_output_0">
					<dim>-1</dim>
					<dim>384</dim>
					<dim>56</dim>
					<dim>56</dim>
				</port>
			</output>
		</layer>
		<layer id="291" name="/model/Sub_1" type="Subtract" version="opset1">
			<data auto_broadcast="numpy" />
			<input>
				<port id="0" precision="FP32">
					<dim>-1</dim>
					<dim>384</dim>
					<dim>56</dim>
					<dim>56</dim>
				</port>
				<port id="1" precision="FP32">
					<dim>-1</dim>
					<dim>384</dim>
					<dim>56</dim>
					<dim>56</dim>
				</port>
			</input>
			<output>
				<port id="2" precision="FP32" names="/model/Sub_1_output_0">
					<dim>-1</dim>
					<dim>384</dim>
					<dim>56</dim>
					<dim>56</dim>
				</port>
			</output>
		</layer>
		<layer id="292" name="Constant_9084" type="Const" version="opset1">
			<data element_type="f32" shape="1, 1, 1, 1" offset="21455064" size="4" />
			<output>
				<port id="0" precision="FP32">
					<dim>1</dim>
					<dim>1</dim>
					<dim>1</dim>
					<dim>1</dim>
				</port>
			</output>
		</layer>
		<layer id="293" name="/model/Pow" type="Power" version="opset1">
			<data auto_broadcast="numpy" />
			<input>
				<port id="0" precision="FP32">
					<dim>-1</dim>
					<dim>384</dim>
					<dim>56</dim>
					<dim>56</dim>
				</port>
				<port id="1" precision="FP32">
					<dim>1</dim>
					<dim>1</dim>
					<dim>1</dim>
					<dim>1</dim>
				</port>
			</input>
			<output>
				<port id="2" precision="FP32" names="/model/Pow_output_0">
					<dim>-1</dim>
					<dim>384</dim>
					<dim>56</dim>
					<dim>56</dim>
				</port>
			</output>
		</layer>
		<layer id="294" name="Constant_1344" type="Const" version="opset1">
			<data element_type="i64" shape="1" offset="48" size="8" />
			<output>
				<port id="0" precision="I64">
					<dim>1</dim>
				</port>
			</output>
		</layer>
		<layer id="295" name="/model/ReduceMean" type="ReduceMean" version="opset1">
			<data keep_dims="true" />
			<input>
				<port id="0" precision="FP32">
					<dim>-1</dim>
					<dim>384</dim>
					<dim>56</dim>
					<dim>56</dim>
				</port>
				<port id="1" precision="I64">
					<dim>1</dim>
				</port>
			</input>
			<output>
				<port id="2" precision="FP32" names="/model/ReduceMean_output_0">
					<dim>-1</dim>
					<dim>1</dim>
					<dim>56</dim>
					<dim>56</dim>
				</port>
			</output>
		</layer>
		<layer id="296" name="Split_1377.0" type="Const" version="opset1">
			<data element_type="i64" shape="4" offset="21455068" size="32" />
			<output>
				<port id="0" precision="I64">
					<dim>4</dim>
				</port>
			</output>
		</layer>
		<layer id="297" name="Split_1377.1" type="Const" version="opset1">
			<data element_type="i64" shape="4" offset="21455068" size="32" />
			<output>
				<port id="0" precision="I64">
					<dim>4</dim>
				</port>
			</output>
		</layer>
		<layer id="298" name="Constant_1375" type="Const" version="opset1">
			<data element_type="f32" shape="" offset="21455100" size="4" />
			<output>
				<port id="0" precision="FP32" />
			</output>
		</layer>
		<layer id="299" name="/model/Pad" type="Pad" version="opset12">
			<data pad_mode="constant" />
			<input>
				<port id="0" precision="FP32">
					<dim>-1</dim>
					<dim>1</dim>
					<dim>56</dim>
					<dim>56</dim>
				</port>
				<port id="1" precision="I64">
					<dim>4</dim>
				</port>
				<port id="2" precision="I64">
					<dim>4</dim>
				</port>
				<port id="3" precision="FP32" />
			</input>
			<output>
				<port id="4" precision="FP32" names="/model/Pad_output_0">
					<dim>-1</dim>
					<dim>1</dim>
					<dim>64</dim>
					<dim>64</dim>
				</port>
			</output>
		</layer>
		<layer id="300" name="/model/Shape_2" type="ShapeOf" version="opset3">
			<data output_type="i64" />
			<input>
				<port id="0" precision="FP32">
					<dim>-1</dim>
					<dim>1</dim>
					<dim>64</dim>
					<dim>64</dim>
				</port>
			</input>
			<output>
				<port id="1" precision="I64" names="/model/Shape_2_output_0">
					<dim>4</dim>
				</port>
			</output>
		</layer>
		<layer id="301" name="/model/Constant_29" type="Const" version="opset1">
			<data element_type="i64" shape="1" offset="32" size="8" />
			<output>
				<port id="0" precision="I64" names="/model/Constant_29_output_0">
					<dim>1</dim>
				</port>
			</output>
		</layer>
		<layer id="302" name="/model/Constant_30" type="Const" version="opset1">
			<data element_type="i64" shape="1" offset="40" size="8" />
			<output>
				<port id="0" precision="I64" names="/model/Constant_30_output_0">
					<dim>1</dim>
				</port>
			</output>
		</layer>
		<layer id="303" name="Broadcast_1426" type="Const" version="opset1">
			<data element_type="i64" shape="1" offset="48" size="8" />
			<output>
				<port id="0" precision="I64">
					<dim>1</dim>
				</port>
			</output>
		</layer>
		<layer id="304" name="/model/Constant_28" type="Const" version="opset1">
			<data element_type="i64" shape="1" offset="32" size="8" />
			<output>
				<port id="0" precision="I64" names="/model/Constant_28_output_0">
					<dim>1</dim>
				</port>
			</output>
		</layer>
		<layer id="305" name="/model/Slice_4" type="Slice" version="opset8">
			<input>
				<port id="0" precision="I64">
					<dim>4</dim>
				</port>
				<port id="1" precision="I64">
					<dim>1</dim>
				</port>
				<port id="2" precision="I64">
					<dim>1</dim>
				</port>
				<port id="3" precision="I64">
					<dim>1</dim>
				</port>
				<port id="4" precision="I64">
					<dim>1</dim>
				</port>
			</input>
			<output>
				<port id="5" precision="I64" names="/model/Slice_4_output_0">
					<dim>2</dim>
				</port>
			</output>
		</layer>
		<layer id="306" name="/model/Concat_4" type="Concat" version="opset1">
			<data axis="0" />
			<input>
				<port id="0" precision="I64">
					<dim>2</dim>
				</port>
				<port id="1" precision="I64">
					<dim>2</dim>
				</port>
			</input>
			<output>
				<port id="2" precision="I64" names="/model/Concat_4_output_0">
					<dim>4</dim>
				</port>
			</output>
		</layer>
		<layer id="307" name="/model/Resize" type="Interpolate" version="opset11">
			<data mode="linear_onnx" shape_calculation_mode="sizes" coordinate_transformation_mode="half_pixel" nearest_mode="floor" antialias="false" pads_begin="0, 0, 0, 0" pads_end="0, 0, 0, 0" cube_coeff="-0.75" />
			<input>
				<port id="0" precision="FP32">
					<dim>-1</dim>
					<dim>1</dim>
					<dim>64</dim>
					<dim>64</dim>
				</port>
				<port id="1" precision="I64">
					<dim>4</dim>
				</port>
			</input>
			<output>
				<port id="2" precision="FP32" names="/model/Resize_output_0">
					<dim>-1</dim>
					<dim>1</dim>
					<dim>256</dim>
					<dim>256</dim>
				</port>
			</output>
		</layer>
		<layer id="308" name="Constant_9085" type="Const" version="opset1">
			<data element_type="f32" shape="1, 1, 1, 1" offset="32231688" size="4" />
			<output>
				<port id="0" precision="FP32">
					<dim>1</dim>
					<dim>1</dim>
					<dim>1</dim>
					<dim>1</dim>
				</port>
			</output>
		</layer>
		<layer id="309" name="Multiply_8972" type="Multiply" version="opset1">
			<data auto_broadcast="numpy" />
			<input>
				<port id="0" precision="FP32">
					<dim>-1</dim>
					<dim>1</dim>
					<dim>256</dim>
					<dim>256</dim>
				</port>
				<port id="1" precision="FP32">
					<dim>1</dim>
					<dim>1</dim>
					<dim>1</dim>
					<dim>1</dim>
				</port>
			</input>
			<output>
				<port id="2" precision="FP32">
					<dim>-1</dim>
					<dim>1</dim>
					<dim>256</dim>
					<dim>256</dim>
				</port>
			</output>
		</layer>
		<layer id="310" name="Constant_9086" type="Const" version="opset1">
			<data element_type="f32" shape="1, 1, 1, 1" offset="32231692" size="4" />
			<output>
				<port id="0" precision="FP32">
					<dim>1</dim>
					<dim>1</dim>
					<dim>1</dim>
					<dim>1</dim>
				</port>
			</output>
		</layer>
		<layer id="311" name="onnx::Mul_427" type="Add" version="opset1">
			<data auto_broadcast="numpy" />
			<input>
				<port id="0" precision="FP32">
					<dim>-1</dim>
					<dim>1</dim>
					<dim>256</dim>
					<dim>256</dim>
				</port>
				<port id="1" precision="FP32">
					<dim>1</dim>
					<dim>1</dim>
					<dim>1</dim>
					<dim>1</dim>
				</port>
			</input>
			<output>
				<port id="2" precision="FP32" names="onnx::Mul_427">
					<dim>-1</dim>
					<dim>1</dim>
					<dim>256</dim>
					<dim>256</dim>
				</port>
			</output>
		</layer>
		<layer id="313" name="Constant_9087" type="Const" version="opset1">
			<data element_type="f32" shape="1, 1, 1, 1" offset="32231696" size="4" />
			<output>
				<port id="0" precision="FP32">
					<dim>1</dim>
					<dim>1</dim>
					<dim>1</dim>
					<dim>1</dim>
				</port>
			</output>
		</layer>
		<layer id="314" name="/model/Mul_2" type="Multiply" version="opset1">
			<data auto_broadcast="numpy" />
			<input>
				<port id="0" precision="FP32">
					<dim>-1</dim>
					<dim>1</dim>
					<dim>256</dim>
					<dim>256</dim>
				</port>
				<port id="1" precision="FP32">
					<dim>1</dim>
					<dim>1</dim>
					<dim>1</dim>
					<dim>1</dim>
				</port>
			</input>
			<output>
				<port id="2" precision="FP32" names="/model/Mul_2_output_0">
					<dim>-1</dim>
					<dim>1</dim>
					<dim>256</dim>
					<dim>256</dim>
				</port>
			</output>
		</layer>
		<layer id="315" name="Constant_9088" type="Const" version="opset1">
			<data element_type="f32" shape="1, 1, 1, 1" offset="32231696" size="4" />
			<output>
				<port id="0" precision="FP32">
					<dim>1</dim>
					<dim>1</dim>
					<dim>1</dim>
					<dim>1</dim>
				</port>
			</output>
		</layer>
		<layer id="316" name="/model/Mul_3" type="Multiply" version="opset1">
			<data auto_broadcast="numpy" />
			<input>
				<port id="0" precision="FP32">
					<dim>-1</dim>
					<dim>1</dim>
					<dim>256</dim>
					<dim>256</dim>
				</port>
				<port id="1" precision="FP32">
					<dim>1</dim>
					<dim>1</dim>
					<dim>1</dim>
					<dim>1</dim>
				</port>
			</input>
			<output>
				<port id="2" precision="FP32" names="/model/Mul_3_output_0">
					<dim>-1</dim>
					<dim>1</dim>
					<dim>256</dim>
					<dim>256</dim>
				</port>
			</output>
		</layer>
		<layer id="317" name="output" type="Add" version="opset1">
			<data auto_broadcast="numpy" />
			<input>
				<port id="0" precision="FP32">
					<dim>-1</dim>
					<dim>1</dim>
					<dim>256</dim>
					<dim>256</dim>
				</port>
				<port id="1" precision="FP32">
					<dim>-1</dim>
					<dim>1</dim>
					<dim>256</dim>
					<dim>256</dim>
				</port>
			</input>
			<output>
				<port id="2" precision="FP32" names="output">
					<dim>-1</dim>
					<dim>1</dim>
					<dim>256</dim>
					<dim>256</dim>
				</port>
			</output>
		</layer>
		<layer id="318" name="output/sink_port_0" type="Result" version="opset1">
			<input>
				<port id="0" precision="FP32">
					<dim>-1</dim>
					<dim>1</dim>
					<dim>256</dim>
					<dim>256</dim>
				</port>
			</input>
		</layer>
		<layer id="312" name="onnx::Mul_427/sink_port_0" type="Result" version="opset1">
			<input>
				<port id="0" precision="FP32">
					<dim>-1</dim>
					<dim>1</dim>
					<dim>256</dim>
					<dim>256</dim>
				</port>
			</input>
		</layer>
		<layer id="264" name="onnx::Mul_432/sink_port_0" type="Result" version="opset1">
			<input>
				<port id="0" precision="FP32">
					<dim>-1</dim>
					<dim>1</dim>
					<dim>256</dim>
					<dim>256</dim>
				</port>
			</input>
		</layer>
	</layers>
	<edges>
		<edge from-layer="0" from-port="0" to-layer="2" to-port="0" />
		<edge from-layer="1" from-port="0" to-layer="2" to-port="1" />
		<edge from-layer="2" from-port="2" to-layer="3" to-port="0" />
		<edge from-layer="2" from-port="2" to-layer="11" to-port="0" />
		<edge from-layer="3" from-port="1" to-layer="8" to-port="0" />
		<edge from-layer="4" from-port="0" to-layer="8" to-port="1" />
		<edge from-layer="5" from-port="0" to-layer="8" to-port="2" />
		<edge from-layer="6" from-port="0" to-layer="8" to-port="3" />
		<edge from-layer="7" from-port="0" to-layer="8" to-port="4" />
		<edge from-layer="8" from-port="5" to-layer="10" to-port="0" />
		<edge from-layer="9" from-port="0" to-layer="10" to-port="1" />
		<edge from-layer="10" from-port="2" to-layer="11" to-port="1" />
		<edge from-layer="11" from-port="2" to-layer="13" to-port="0" />
		<edge from-layer="12" from-port="0" to-layer="13" to-port="1" />
		<edge from-layer="13" from-port="2" to-layer="53" to-port="0" />
		<edge from-layer="13" from-port="2" to-layer="15" to-port="0" />
		<edge from-layer="14" from-port="0" to-layer="15" to-port="1" />
		<edge from-layer="15" from-port="2" to-layer="17" to-port="0" />
		<edge from-layer="16" from-port="0" to-layer="17" to-port="1" />
		<edge from-layer="17" from-port="2" to-layer="19" to-port="0" />
		<edge from-layer="17" from-port="2" to-layer="217" to-port="0" />
		<edge from-layer="17" from-port="2" to-layer="266" to-port="0" />
		<edge from-layer="18" from-port="0" to-layer="19" to-port="1" />
		<edge from-layer="19" from-port="2" to-layer="21" to-port="0" />
		<edge from-layer="20" from-port="0" to-layer="21" to-port="1" />
		<edge from-layer="21" from-port="2" to-layer="22" to-port="0" />
		<edge from-layer="22" from-port="1" to-layer="24" to-port="0" />
		<edge from-layer="23" from-port="0" to-layer="24" to-port="1" />
		<edge from-layer="24" from-port="2" to-layer="26" to-port="0" />
		<edge from-layer="25" from-port="0" to-layer="26" to-port="1" />
		<edge from-layer="26" from-port="2" to-layer="27" to-port="0" />
		<edge from-layer="27" from-port="1" to-layer="29" to-port="0" />
		<edge from-layer="28" from-port="0" to-layer="29" to-port="1" />
		<edge from-layer="29" from-port="2" to-layer="31" to-port="0" />
		<edge from-layer="30" from-port="0" to-layer="31" to-port="1" />
		<edge from-layer="31" from-port="2" to-layer="32" to-port="0" />
		<edge from-layer="32" from-port="1" to-layer="34" to-port="0" />
		<edge from-layer="33" from-port="0" to-layer="34" to-port="1" />
		<edge from-layer="34" from-port="2" to-layer="36" to-port="0" />
		<edge from-layer="35" from-port="0" to-layer="36" to-port="1" />
		<edge from-layer="36" from-port="2" to-layer="37" to-port="0" />
		<edge from-layer="37" from-port="1" to-layer="39" to-port="0" />
		<edge from-layer="38" from-port="0" to-layer="39" to-port="1" />
		<edge from-layer="39" from-port="2" to-layer="41" to-port="0" />
		<edge from-layer="40" from-port="0" to-layer="41" to-port="1" />
		<edge from-layer="41" from-port="2" to-layer="42" to-port="0" />
		<edge from-layer="42" from-port="1" to-layer="44" to-port="0" />
		<edge from-layer="43" from-port="0" to-layer="44" to-port="1" />
		<edge from-layer="44" from-port="2" to-layer="46" to-port="0" />
		<edge from-layer="45" from-port="0" to-layer="46" to-port="1" />
		<edge from-layer="46" from-port="2" to-layer="47" to-port="0" />
		<edge from-layer="46" from-port="2" to-layer="74" to-port="0" />
		<edge from-layer="47" from-port="1" to-layer="52" to-port="0" />
		<edge from-layer="48" from-port="0" to-layer="52" to-port="1" />
		<edge from-layer="49" from-port="0" to-layer="52" to-port="2" />
		<edge from-layer="50" from-port="0" to-layer="52" to-port="3" />
		<edge from-layer="51" from-port="0" to-layer="52" to-port="4" />
		<edge from-layer="52" from-port="5" to-layer="73" to-port="0" />
		<edge from-layer="53" from-port="1" to-layer="56" to-port="0" />
		<edge from-layer="53" from-port="1" to-layer="65" to-port="0" />
		<edge from-layer="54" from-port="0" to-layer="56" to-port="1" />
		<edge from-layer="55" from-port="0" to-layer="56" to-port="2" />
		<edge from-layer="56" from-port="3" to-layer="179" to-port="0" />
		<edge from-layer="56" from-port="3" to-layer="153" to-port="0" />
		<edge from-layer="56" from-port="3" to-layer="109" to-port="0" />
		<edge from-layer="56" from-port="3" to-layer="87" to-port="0" />
		<edge from-layer="56" from-port="3" to-layer="58" to-port="0" />
		<edge from-layer="57" from-port="0" to-layer="58" to-port="1" />
		<edge from-layer="58" from-port="2" to-layer="60" to-port="0" />
		<edge from-layer="59" from-port="0" to-layer="60" to-port="1" />
		<edge from-layer="60" from-port="2" to-layer="62" to-port="0" />
		<edge from-layer="61" from-port="0" to-layer="62" to-port="1" />
		<edge from-layer="62" from-port="2" to-layer="72" to-port="0" />
		<edge from-layer="63" from-port="0" to-layer="65" to-port="1" />
		<edge from-layer="64" from-port="0" to-layer="65" to-port="2" />
		<edge from-layer="65" from-port="3" to-layer="115" to-port="0" />
		<edge from-layer="65" from-port="3" to-layer="67" to-port="0" />
		<edge from-layer="65" from-port="3" to-layer="185" to-port="0" />
		<edge from-layer="65" from-port="3" to-layer="91" to-port="0" />
		<edge from-layer="65" from-port="3" to-layer="159" to-port="0" />
		<edge from-layer="66" from-port="0" to-layer="67" to-port="1" />
		<edge from-layer="67" from-port="2" to-layer="69" to-port="0" />
		<edge from-layer="68" from-port="0" to-layer="69" to-port="1" />
		<edge from-layer="69" from-port="2" to-layer="71" to-port="0" />
		<edge from-layer="70" from-port="0" to-layer="71" to-port="1" />
		<edge from-layer="71" from-port="2" to-layer="72" to-port="1" />
		<edge from-layer="72" from-port="2" to-layer="73" to-port="1" />
		<edge from-layer="73" from-port="2" to-layer="74" to-port="1" />
		<edge from-layer="74" from-port="2" to-layer="76" to-port="0" />
		<edge from-layer="75" from-port="0" to-layer="76" to-port="1" />
		<edge from-layer="76" from-port="2" to-layer="78" to-port="0" />
		<edge from-layer="77" from-port="0" to-layer="78" to-port="1" />
		<edge from-layer="78" from-port="2" to-layer="79" to-port="0" />
		<edge from-layer="79" from-port="1" to-layer="96" to-port="0" />
		<edge from-layer="79" from-port="1" to-layer="80" to-port="0" />
		<edge from-layer="80" from-port="1" to-layer="85" to-port="0" />
		<edge from-layer="81" from-port="0" to-layer="85" to-port="1" />
		<edge from-layer="82" from-port="0" to-layer="85" to-port="2" />
		<edge from-layer="83" from-port="0" to-layer="85" to-port="3" />
		<edge from-layer="84" from-port="0" to-layer="85" to-port="4" />
		<edge from-layer="85" from-port="5" to-layer="95" to-port="0" />
		<edge from-layer="86" from-port="0" to-layer="87" to-port="1" />
		<edge from-layer="87" from-port="2" to-layer="257" to-port="0" />
		<edge from-layer="87" from-port="2" to-layer="135" to-port="0" />
		<edge from-layer="87" from-port="2" to-layer="89" to-port="0" />
		<edge from-layer="88" from-port="0" to-layer="89" to-port="1" />
		<edge from-layer="89" from-port="2" to-layer="94" to-port="0" />
		<edge from-layer="90" from-port="0" to-layer="91" to-port="1" />
		<edge from-layer="91" from-port="2" to-layer="93" to-port="0" />
		<edge from-layer="91" from-port="2" to-layer="257" to-port="1" />
		<edge from-layer="91" from-port="2" to-layer="137" to-port="0" />
		<edge from-layer="92" from-port="0" to-layer="93" to-port="1" />
		<edge from-layer="93" from-port="2" to-layer="94" to-port="1" />
		<edge from-layer="94" from-port="2" to-layer="95" to-port="1" />
		<edge from-layer="95" from-port="2" to-layer="96" to-port="1" />
		<edge from-layer="96" from-port="2" to-layer="98" to-port="0" />
		<edge from-layer="97" from-port="0" to-layer="98" to-port="1" />
		<edge from-layer="98" from-port="2" to-layer="100" to-port="0" />
		<edge from-layer="99" from-port="0" to-layer="100" to-port="1" />
		<edge from-layer="100" from-port="2" to-layer="101" to-port="0" />
		<edge from-layer="101" from-port="1" to-layer="122" to-port="0" />
		<edge from-layer="101" from-port="1" to-layer="102" to-port="0" />
		<edge from-layer="102" from-port="1" to-layer="107" to-port="0" />
		<edge from-layer="103" from-port="0" to-layer="107" to-port="1" />
		<edge from-layer="104" from-port="0" to-layer="107" to-port="2" />
		<edge from-layer="105" from-port="0" to-layer="107" to-port="3" />
		<edge from-layer="106" from-port="0" to-layer="107" to-port="4" />
		<edge from-layer="107" from-port="5" to-layer="121" to-port="0" />
		<edge from-layer="108" from-port="0" to-layer="109" to-port="1" />
		<edge from-layer="109" from-port="2" to-layer="111" to-port="0" />
		<edge from-layer="110" from-port="0" to-layer="111" to-port="1" />
		<edge from-layer="111" from-port="2" to-layer="113" to-port="0" />
		<edge from-layer="112" from-port="0" to-layer="113" to-port="1" />
		<edge from-layer="113" from-port="2" to-layer="120" to-port="0" />
		<edge from-layer="114" from-port="0" to-layer="115" to-port="1" />
		<edge from-layer="115" from-port="2" to-layer="117" to-port="0" />
		<edge from-layer="116" from-port="0" to-layer="117" to-port="1" />
		<edge from-layer="117" from-port="2" to-layer="119" to-port="0" />
		<edge from-layer="118" from-port="0" to-layer="119" to-port="1" />
		<edge from-layer="119" from-port="2" to-layer="120" to-port="1" />
		<edge from-layer="120" from-port="2" to-layer="121" to-port="1" />
		<edge from-layer="121" from-port="2" to-layer="122" to-port="1" />
		<edge from-layer="122" from-port="2" to-layer="124" to-port="0" />
		<edge from-layer="123" from-port="0" to-layer="124" to-port="1" />
		<edge from-layer="124" from-port="2" to-layer="126" to-port="0" />
		<edge from-layer="125" from-port="0" to-layer="126" to-port="1" />
		<edge from-layer="126" from-port="2" to-layer="127" to-port="0" />
		<edge from-layer="127" from-port="1" to-layer="128" to-port="0" />
		<edge from-layer="127" from-port="1" to-layer="140" to-port="0" />
		<edge from-layer="128" from-port="1" to-layer="133" to-port="0" />
		<edge from-layer="129" from-port="0" to-layer="133" to-port="1" />
		<edge from-layer="130" from-port="0" to-layer="133" to-port="2" />
		<edge from-layer="131" from-port="0" to-layer="133" to-port="3" />
		<edge from-layer="132" from-port="0" to-layer="133" to-port="4" />
		<edge from-layer="133" from-port="5" to-layer="139" to-port="0" />
		<edge from-layer="134" from-port="0" to-layer="135" to-port="1" />
		<edge from-layer="135" from-port="2" to-layer="138" to-port="0" />
		<edge from-layer="136" from-port="0" to-layer="137" to-port="1" />
		<edge from-layer="137" from-port="2" to-layer="138" to-port="1" />
		<edge from-layer="138" from-port="2" to-layer="139" to-port="1" />
		<edge from-layer="139" from-port="2" to-layer="140" to-port="1" />
		<edge from-layer="140" from-port="2" to-layer="142" to-port="0" />
		<edge from-layer="141" from-port="0" to-layer="142" to-port="1" />
		<edge from-layer="142" from-port="2" to-layer="144" to-port="0" />
		<edge from-layer="143" from-port="0" to-layer="144" to-port="1" />
		<edge from-layer="144" from-port="2" to-layer="145" to-port="0" />
		<edge from-layer="145" from-port="1" to-layer="166" to-port="0" />
		<edge from-layer="145" from-port="1" to-layer="146" to-port="0" />
		<edge from-layer="146" from-port="1" to-layer="151" to-port="0" />
		<edge from-layer="147" from-port="0" to-layer="151" to-port="1" />
		<edge from-layer="148" from-port="0" to-layer="151" to-port="2" />
		<edge from-layer="149" from-port="0" to-layer="151" to-port="3" />
		<edge from-layer="150" from-port="0" to-layer="151" to-port="4" />
		<edge from-layer="151" from-port="5" to-layer="165" to-port="0" />
		<edge from-layer="152" from-port="0" to-layer="153" to-port="1" />
		<edge from-layer="153" from-port="2" to-layer="155" to-port="0" />
		<edge from-layer="154" from-port="0" to-layer="155" to-port="1" />
		<edge from-layer="155" from-port="2" to-layer="157" to-port="0" />
		<edge from-layer="156" from-port="0" to-layer="157" to-port="1" />
		<edge from-layer="157" from-port="2" to-layer="164" to-port="0" />
		<edge from-layer="158" from-port="0" to-layer="159" to-port="1" />
		<edge from-layer="159" from-port="2" to-layer="161" to-port="0" />
		<edge from-layer="160" from-port="0" to-layer="161" to-port="1" />
		<edge from-layer="161" from-port="2" to-layer="163" to-port="0" />
		<edge from-layer="162" from-port="0" to-layer="163" to-port="1" />
		<edge from-layer="163" from-port="2" to-layer="164" to-port="1" />
		<edge from-layer="164" from-port="2" to-layer="165" to-port="1" />
		<edge from-layer="165" from-port="2" to-layer="166" to-port="1" />
		<edge from-layer="166" from-port="2" to-layer="168" to-port="0" />
		<edge from-layer="167" from-port="0" to-layer="168" to-port="1" />
		<edge from-layer="168" from-port="2" to-layer="170" to-port="0" />
		<edge from-layer="169" from-port="0" to-layer="170" to-port="1" />
		<edge from-layer="170" from-port="2" to-layer="171" to-port="0" />
		<edge from-layer="171" from-port="1" to-layer="172" to-port="0" />
		<edge from-layer="171" from-port="1" to-layer="192" to-port="0" />
		<edge from-layer="172" from-port="1" to-layer="177" to-port="0" />
		<edge from-layer="173" from-port="0" to-layer="177" to-port="1" />
		<edge from-layer="174" from-port="0" to-layer="177" to-port="2" />
		<edge from-layer="175" from-port="0" to-layer="177" to-port="3" />
		<edge from-layer="176" from-port="0" to-layer="177" to-port="4" />
		<edge from-layer="177" from-port="5" to-layer="191" to-port="0" />
		<edge from-layer="178" from-port="0" to-layer="179" to-port="1" />
		<edge from-layer="179" from-port="2" to-layer="181" to-port="0" />
		<edge from-layer="180" from-port="0" to-layer="181" to-port="1" />
		<edge from-layer="181" from-port="2" to-layer="183" to-port="0" />
		<edge from-layer="182" from-port="0" to-layer="183" to-port="1" />
		<edge from-layer="183" from-port="2" to-layer="190" to-port="0" />
		<edge from-layer="184" from-port="0" to-layer="185" to-port="1" />
		<edge from-layer="185" from-port="2" to-layer="187" to-port="0" />
		<edge from-layer="186" from-port="0" to-layer="187" to-port="1" />
		<edge from-layer="187" from-port="2" to-layer="189" to-port="0" />
		<edge from-layer="188" from-port="0" to-layer="189" to-port="1" />
		<edge from-layer="189" from-port="2" to-layer="190" to-port="1" />
		<edge from-layer="190" from-port="2" to-layer="191" to-port="1" />
		<edge from-layer="191" from-port="2" to-layer="192" to-port="1" />
		<edge from-layer="192" from-port="2" to-layer="194" to-port="0" />
		<edge from-layer="193" from-port="0" to-layer="194" to-port="1" />
		<edge from-layer="194" from-port="2" to-layer="196" to-port="0" />
		<edge from-layer="195" from-port="0" to-layer="196" to-port="1" />
		<edge from-layer="196" from-port="2" to-layer="197" to-port="0" />
		<edge from-layer="197" from-port="1" to-layer="198" to-port="0" />
		<edge from-layer="197" from-port="1" to-layer="206" to-port="0" />
		<edge from-layer="198" from-port="1" to-layer="203" to-port="0" />
		<edge from-layer="199" from-port="0" to-layer="203" to-port="1" />
		<edge from-layer="200" from-port="0" to-layer="203" to-port="2" />
		<edge from-layer="201" from-port="0" to-layer="203" to-port="3" />
		<edge from-layer="202" from-port="0" to-layer="203" to-port="4" />
		<edge from-layer="203" from-port="5" to-layer="205" to-port="0" />
		<edge from-layer="204" from-port="0" to-layer="205" to-port="1" />
		<edge from-layer="205" from-port="2" to-layer="206" to-port="1" />
		<edge from-layer="206" from-port="2" to-layer="208" to-port="0" />
		<edge from-layer="207" from-port="0" to-layer="208" to-port="1" />
		<edge from-layer="208" from-port="2" to-layer="210" to-port="0" />
		<edge from-layer="209" from-port="0" to-layer="210" to-port="1" />
		<edge from-layer="210" from-port="2" to-layer="211" to-port="0" />
		<edge from-layer="211" from-port="1" to-layer="213" to-port="0" />
		<edge from-layer="212" from-port="0" to-layer="213" to-port="1" />
		<edge from-layer="213" from-port="2" to-layer="215" to-port="0" />
		<edge from-layer="214" from-port="0" to-layer="215" to-port="1" />
		<edge from-layer="215" from-port="2" to-layer="242" to-port="0" />
		<edge from-layer="216" from-port="0" to-layer="217" to-port="1" />
		<edge from-layer="217" from-port="2" to-layer="219" to-port="0" />
		<edge from-layer="218" from-port="0" to-layer="219" to-port="1" />
		<edge from-layer="219" from-port="2" to-layer="220" to-port="0" />
		<edge from-layer="220" from-port="1" to-layer="221" to-port="0" />
		<edge from-layer="221" from-port="1" to-layer="223" to-port="0" />
		<edge from-layer="222" from-port="0" to-layer="223" to-port="1" />
		<edge from-layer="223" from-port="2" to-layer="225" to-port="0" />
		<edge from-layer="224" from-port="0" to-layer="225" to-port="1" />
		<edge from-layer="225" from-port="2" to-layer="226" to-port="0" />
		<edge from-layer="226" from-port="1" to-layer="227" to-port="0" />
		<edge from-layer="227" from-port="1" to-layer="229" to-port="0" />
		<edge from-layer="228" from-port="0" to-layer="229" to-port="1" />
		<edge from-layer="229" from-port="2" to-layer="231" to-port="0" />
		<edge from-layer="230" from-port="0" to-layer="231" to-port="1" />
		<edge from-layer="231" from-port="2" to-layer="232" to-port="0" />
		<edge from-layer="232" from-port="1" to-layer="234" to-port="0" />
		<edge from-layer="233" from-port="0" to-layer="234" to-port="1" />
		<edge from-layer="234" from-port="2" to-layer="236" to-port="0" />
		<edge from-layer="235" from-port="0" to-layer="236" to-port="1" />
		<edge from-layer="236" from-port="2" to-layer="241" to-port="0" />
		<edge from-layer="236" from-port="2" to-layer="290" to-port="0" />
		<edge from-layer="237" from-port="0" to-layer="241" to-port="1" />
		<edge from-layer="238" from-port="0" to-layer="241" to-port="2" />
		<edge from-layer="239" from-port="0" to-layer="241" to-port="3" />
		<edge from-layer="240" from-port="0" to-layer="241" to-port="4" />
		<edge from-layer="241" from-port="5" to-layer="242" to-port="1" />
		<edge from-layer="242" from-port="2" to-layer="244" to-port="0" />
		<edge from-layer="243" from-port="0" to-layer="244" to-port="1" />
		<edge from-layer="244" from-port="2" to-layer="246" to-port="0" />
		<edge from-layer="245" from-port="0" to-layer="246" to-port="1" />
		<edge from-layer="246" from-port="2" to-layer="250" to-port="0" />
		<edge from-layer="247" from-port="0" to-layer="250" to-port="1" />
		<edge from-layer="248" from-port="0" to-layer="250" to-port="2" />
		<edge from-layer="249" from-port="0" to-layer="250" to-port="3" />
		<edge from-layer="250" from-port="4" to-layer="251" to-port="0" />
		<edge from-layer="250" from-port="4" to-layer="259" to-port="0" />
		<edge from-layer="251" from-port="1" to-layer="256" to-port="0" />
		<edge from-layer="252" from-port="0" to-layer="256" to-port="1" />
		<edge from-layer="253" from-port="0" to-layer="256" to-port="2" />
		<edge from-layer="254" from-port="0" to-layer="256" to-port="3" />
		<edge from-layer="255" from-port="0" to-layer="256" to-port="4" />
		<edge from-layer="256" from-port="5" to-layer="258" to-port="0" />
		<edge from-layer="257" from-port="2" to-layer="306" to-port="1" />
		<edge from-layer="257" from-port="2" to-layer="258" to-port="1" />
		<edge from-layer="258" from-port="2" to-layer="259" to-port="1" />
		<edge from-layer="259" from-port="2" to-layer="261" to-port="0" />
		<edge from-layer="260" from-port="0" to-layer="261" to-port="1" />
		<edge from-layer="261" from-port="2" to-layer="263" to-port="0" />
		<edge from-layer="262" from-port="0" to-layer="263" to-port="1" />
		<edge from-layer="263" from-port="2" to-layer="264" to-port="0" />
		<edge from-layer="263" from-port="2" to-layer="316" to-port="0" />
		<edge from-layer="265" from-port="0" to-layer="266" to-port="1" />
		<edge from-layer="266" from-port="2" to-layer="268" to-port="0" />
		<edge from-layer="267" from-port="0" to-layer="268" to-port="1" />
		<edge from-layer="268" from-port="2" to-layer="269" to-port="0" />
		<edge from-layer="269" from-port="1" to-layer="270" to-port="0" />
		<edge from-layer="270" from-port="1" to-layer="272" to-port="0" />
		<edge from-layer="271" from-port="0" to-layer="272" to-port="1" />
		<edge from-layer="272" from-port="2" to-layer="274" to-port="0" />
		<edge from-layer="273" from-port="0" to-layer="274" to-port="1" />
		<edge from-layer="274" from-port="2" to-layer="275" to-port="0" />
		<edge from-layer="275" from-port="1" to-layer="276" to-port="0" />
		<edge from-layer="276" from-port="1" to-layer="278" to-port="0" />
		<edge from-layer="277" from-port="0" to-layer="278" to-port="1" />
		<edge from-layer="278" from-port="2" to-layer="280" to-port="0" />
		<edge from-layer="279" from-port="0" to-layer="280" to-port="1" />
		<edge from-layer="280" from-port="2" to-layer="281" to-port="0" />
		<edge from-layer="281" from-port="1" to-layer="283" to-port="0" />
		<edge from-layer="282" from-port="0" to-layer="283" to-port="1" />
		<edge from-layer="283" from-port="2" to-layer="285" to-port="0" />
		<edge from-layer="284" from-port="0" to-layer="285" to-port="1" />
		<edge from-layer="285" from-port="2" to-layer="291" to-port="0" />
		<edge from-layer="286" from-port="0" to-layer="290" to-port="1" />
		<edge from-layer="287" from-port="0" to-layer="290" to-port="2" />
		<edge from-layer="288" from-port="0" to-layer="290" to-port="3" />
		<edge from-layer="289" from-port="0" to-layer="290" to-port="4" />
		<edge from-layer="290" from-port="5" to-layer="291" to-port="1" />
		<edge from-layer="291" from-port="2" to-layer="293" to-port="0" />
		<edge from-layer="292" from-port="0" to-layer="293" to-port="1" />
		<edge from-layer="293" from-port="2" to-layer="295" to-port="0" />
		<edge from-layer="294" from-port="0" to-layer="295" to-port="1" />
		<edge from-layer="295" from-port="2" to-layer="299" to-port="0" />
		<edge from-layer="296" from-port="0" to-layer="299" to-port="1" />
		<edge from-layer="297" from-port="0" to-layer="299" to-port="2" />
		<edge from-layer="298" from-port="0" to-layer="299" to-port="3" />
		<edge from-layer="299" from-port="4" to-layer="300" to-port="0" />
		<edge from-layer="299" from-port="4" to-layer="307" to-port="0" />
		<edge from-layer="300" from-port="1" to-layer="305" to-port="0" />
		<edge from-layer="301" from-port="0" to-layer="305" to-port="1" />
		<edge from-layer="302" from-port="0" to-layer="305" to-port="2" />
		<edge from-layer="303" from-port="0" to-layer="305" to-port="3" />
		<edge from-layer="304" from-port="0" to-layer="305" to-port="4" />
		<edge from-layer="305" from-port="5" to-layer="306" to-port="0" />
		<edge from-layer="306" from-port="2" to-layer="307" to-port="1" />
		<edge from-layer="307" from-port="2" to-layer="309" to-port="0" />
		<edge from-layer="308" from-port="0" to-layer="309" to-port="1" />
		<edge from-layer="309" from-port="2" to-layer="311" to-port="0" />
		<edge from-layer="310" from-port="0" to-layer="311" to-port="1" />
		<edge from-layer="311" from-port="2" to-layer="312" to-port="0" />
		<edge from-layer="311" from-port="2" to-layer="314" to-port="0" />
		<edge from-layer="313" from-port="0" to-layer="314" to-port="1" />
		<edge from-layer="314" from-port="2" to-layer="317" to-port="0" />
		<edge from-layer="315" from-port="0" to-layer="316" to-port="1" />
		<edge from-layer="316" from-port="2" to-layer="317" to-port="1" />
		<edge from-layer="317" from-port="2" to-layer="318" to-port="0" />
	</edges>
	<rt_info>
		<Runtime_version value="2024.4.0-16579-c3152d32c9c-releases/2024/4" />
		<conversion_parameters>
			<is_python_object value="False" />
		</conversion_parameters>
	</rt_info>
</net>
